examples/locomotion/backflip/double.pt (torch, 799540 bytes, 8 tensors)

weight f4 [512, 60]
-0.046399556 0.078633636 0.10234785 -0.034792934 -0.10522123 -0.16590418 -0.272912 0.11293126
0.14592749 -0.20495185 -0.34163624 -0.26370272 -0.38779578 -0.26209167 0.032877948 0.119731285
-0.14872928 0.009428968 -0.11269851 0.014262723 -0.03472892 -0.11433292 -0.13339876 -0.029798489
-0.19395229 -0.19687712 -0.120469 0.3157521 -0.3485939 -0.19843291 -0.045214865 -0.04549354
-0.052597463 -0.033007894 0.021115536 0.03240321 -0.12781544 0.07466434 -0.00708667 -0.09892938
-0.05008425 0.09608851 -0.009945217 0.061492722 -0.017481606 0.0013444651 -0.010860276 -0.02596494
-0.053904355 0.012371318 0.038629234 -0.08625461 0.014983142 0.027278483 0.11077557 -0.014655419
-0.15156262 -0.034599274 -0.15796472 0.02970731 -0.3855232 0.09875582 -0.32920238 -0.026231727
-0.09273947 0.21966338 -0.186849 0.17067416 0.035757598 -0.20083523 -0.33200726 -0.05957902
0.006745964 0.0024607151 -0.15662202 0.09807723 -0.3029137 0.039502736 -0.1911639 0.018848676
-0.17543583 -0.016402053 -0.08062921 -0.13646835 -0.15472524 -0.14264214 -0.01966291 -0.31634778
-0.34072682 -0.10562395 -0.034363404 -0.007833193 -0.01608796 -0.07067222 -0.072702534 0.025302842
-0.015099358 0.048507486 0.034036845 0.012049691 -0.0073224697 0.064627595 -0.069559634 0.0673502
-0.04661466 -0.0015124324 -0.06364804 -0.018831935 0.02404695 0.04602161 0.0150479 0.04574184
0.07464455 -0.10074369 -0.24497749 0.08051593 -0.011248282 -0.04798518 -0.119246066 0.04173477
-0.09860387 -0.09167768 0.114697374 0.11993799 0.15731883 -0.04109041 -0.09502426 0.06622937
0.022316078 0.026268378 -0.21041748 0.26288193 0.056137197 0.0077357288 -0.2187134 -0.11293344
0.009373652 0.34052294 -0.052294016 -0.22867663 -0.11612793 -0.16029808 -0.07514804 -0.027201777
0.11689141 0.04446684 -0.21699725 0.06885631 -0.04132103 -0.039028626 -0.03810589 -0.024039207
0.11605024 -0.026933488 -0.07124599 0.025513219 0.14295788 -0.12999715 -0.09546322 -0.044257436
0.043785796 -0.06568335 0.0063997316 0.11550984 -0.044029478 0.021021329 0.013662361 -0.1490418
-0.10793624 -0.11746618 -0.008653485 0.05222327 0.08163821 0.0653932 -0.39209223 -0.51434606
-0.023820039 -0.14504746 0.13133384 0.057569753 -0.082719825 -0.17187876 -0.023621816 -0.22928688
-0.5917927 -0.031398285 -0.3713488 -0.046373427 -0.0620906 0.36946094 0.16712579 0.33269253
0.008653226 -0.014119313 0.13395773 0.042231657 -0.1938162 0.036981616 -0.11818928 -0.035265725
0.106380835 0.16414016 0.0060393577 0.03352409 0.3245944 0.16547695 0.041481834 0.06216898
-0.24172458 0.14260745 -0.0049914634 0.024354048 0.012722358 0.029175669 -8.560603e-05 -0.0077653066
0.029223254 -0.03942919 -0.095133215 -0.03474265 -0.018396076 0.061793253 -0.04636603 0.012202076
-0.04319803 -0.027443392 -5.206052e-05 0.033680324 -0.06768755 -0.023226868 -0.03312766 -0.0019619341
0.029486954 0.014122524 -0.15228584 -0.020796796 0.0689253 0.002446845 -0.12525912 -0.046376348
-0.29156414 -0.072632656 0.32049656 0.11599932 0.45545417 0.12021075 -0.104943104 0.10309244
0.014106691 0.10008114 0.17659235 -0.041614324 -0.33794984 0.000937088 -0.22265026 -0.307011
00000000: 760d 3ebd ac0a a13d c09b d13d 0983 0ebd
00000010: 3a7e d7bd c9e2 29be 1fbb 8bbe 8148 e73d
00000020: 046e 153e e6de 51be f2ea aebe 0b04 87be
00000030: 2b8d c6be e130 86be 07ab 063d ad35 f53d
00000040: 7d4c 18be f57b 1a3c 7ace e6bd 32ae 693c
00000050: e93f 0ebd 6127 eabd af99 08be f61b f4bc
00000060: 6e9b 46be 289a 49be 73b8 f6bd 42aa a13e
00000070: e67a b2be ff31 4bbe 3933 39bd 6f57 3abd
00000080: 7070 57bd 4933 07bd 7dfa ac3c 3ab9 043d
00000090: 0de2 02be 9ee9 983d 4c37 e8bb 7d9b cabd
000000a0: 2425 4dbd 0dca c43d 43f1 22bc cbdf 7b3d
000000b0: 9635 8fbc c338 b03a 4def 31bc 6db4 d4bc
000000c0: d0ca 5cbd 12b1 4a3c b039 1e3d 42a6 b0bd
000000d0: da7b 753c 2077 df3c 4dde e23d 481d 70bc
000000e0: 3b33 1bbe f8b7 0dbd 81c1 21be bf5c f33c
000000f0: 4c63 c5be 7e40 ca3d 378d a8be ebe3 d6bc
00000100: 31ee bdbd 70ef 603e 5855 3fbe 35c5 2e3e
00000110: 8f76 123d c0a7 4dbe dbfc a9be 2109 74bd
00000120: 3f0d dd3b f343 213b 8661 20be b7dc c83d
00000130: 8117 9bbe 9fcd 213d 78c0 43be 8a68 9a3c
00000140: 73a5 33be 995d 86bc ed20 a5bd 5cbe 0bbe
00000150: 4b70 1ebe c810 12be 1c14 a1bc 56f8 a1be
00000160: bf73 aebe 5f51 d8bd a4c0 0cbd cb56 00bc
00000170: e6ca 83bc 99bc 90bd 11e5 94bd e847 cf3c
00000180: 4c63 77bc c9af 463d 386a 0b3d 116c 453c
00000190: 54f1 efbb 795b 843d 4875 8ebd e7ee 893d
000001a0: 04ef 3ebd cf3c c6ba e759 82bd 6e45 9abc
000001b0: 1cfe c43c 2881 3c3d 788b 763c cc5b 3b3d
000001c0: 3edf 983d b552 cebd 61db 7abe 89e5 a43d
000001d0: b74a 38bc 1c8c 44bd 4837 f4bd 14f2 2a3d
000001e0: d3f0 c9bd 82c1 bbbd 75e6 ea3d 0da2 f53d
000001f0: 3018 213e 6b4e 28bd 149c c2bd 44a3 873d
00000200: 35d0 b63c c830 d73c ae77 57be 7698 863e
00000210: 1ef0 653d ff7b fd3b 68f6 5fbe a649 e7bd
00000220: f293 193c 0659 ae3e 4032 56bd 352a 6abe
00000230: 7bd4 edbd 2e25 24be 37e7 99bd 43d6 debc
00000240: c364 ef3d dc22 363d 8734 5ebe 8904 8d3d
00000250: 3e40 29bd 7bdc 1fbd ec14 1cbd dfed c4bc
00000260: c0ab ed3d 9ea3 dcbc 6be9 91bd 1901 d13c
00000270: 8d63 123e f91d 05be 3882 c3bd 4947 35bd
00000280: bc58 333d fe84 86bd d7b4 d13b 6c90 ec3d
00000290: 4158 34bd ec34 ac3c 18d8 5f3c 6a9e 18be
000002a0: ad0d ddbd 1c92 f0bd 59c7 0dbc 11e8 553d
000002b0: ef31 a73d dfec 853d 50c0 c8be 2fac 03bf
000002c0: 3e22 c3bc 5287 14be 617c 063e 43ce 6b3d
000002d0: 0369 a9bd fc00 30be 8a82 c1bc 2eca 6abe
000002e0: ba7f 17bf 7d9b 00bd 6e21 bebe 10f2 3dbd
000002f0: b752 7ebd fc29 bd3e 0623 2b3e ad56 aa3e
00000300: 43c6 0d3c b154 67bc 372c 093e 1afb 2c3d
00000310: c177 46be 097a 173d 390d f2bd cb72 10bd
00000320: 32de d93d 5c14 283e cee5 c53b 8e50 093d
00000330: 3d31 a63e ca72 293e dbe8 293d e6a4 7e3d
00000340: a686 77be b007 123e 6e8f a3bb 2482 c73c
00000350: 7071 503c d001 ef3c 6387 b3b8 1d74 febb
00000360: 9b65 ef3c 8180 21bd 34d5 c2bd 4f4e 0ebd
00000370: 5eb3 96bc ec1a 7d3d 4eea 3dbd 37eb 473c
00000380: 6bf0 30bd f7d0 e0bc 8f5b 5ab8 61f4 093d
00000390: c59f 8abd 4646 bebc dfb0 07bd cb93 00bb
000003a0: a08e f13c 2962 673c d2f0 1bbe 0b5e aabc
000003b0: b528 8d3d 3f5b 203b ed43 00be 20f5 3dbd
000003c0: e547 95be 6ec0 94bd 2018 a43e 0d91 ed3d
000003d0: 4a31 e93e 0e31 f63d 69ec d6bd 2122 d33d
000003e0: c01f 673c 57f7 cc3d a0d4 343e c873 2abd
000003f0: c307 adbe e9a6 753a 6efe 63be 8c30 9dbe

bias f4 [512]
-0.1341811 0.15307516 0.17178445 -0.026192022 -0.17720103 0.21957442 0.16093063 -0.033653215
-0.0015795883 -0.005711804 -0.1580267 -0.07385908 0.20640653 -0.10198469 0.0021873675 -0.061558362
0.057429798 -0.16122065 -0.020301571 -0.0828556 -0.1644007 0.00068160467 -0.134564 0.0280108
-0.047634516 0.15800194 -0.022248853 -0.11493036 -0.1649615 -0.17402345 -0.07721555 -0.07898784
-0.09648029 -0.14790444 -0.052988566 0.025894884 0.093045175 0.0351206 0.01264237 0.08815211
-0.13205123 -0.13395074 -0.0028293098 -0.12630051 -0.0811519 -0.093779065 0.19491813 0.03178034
-0.04401333 0.020687263 0.23005821 -0.09482447 0.0028147388 0.03556316 0.121283345 -0.14555693
-0.05834893 -0.01650693 0.19807582 0.032075882 -0.08327077 0.12717834 -0.16677986 -0.019162932
-0.13599877 0.15265255 -0.11792628 0.08702758 0.043471113 -0.093701266 0.09870665 0.08783012
-0.06632691 -0.060171194 0.035131585 -0.0149306245 -0.10461931 -0.018924456 -0.08356034 -0.020023143
-0.09267799 -0.11775899 0.032539435 0.106143296 0.01978061 -0.21183614 -0.10823057 0.027095344
-0.103743516 -0.09387499 0.08142413 0.09060514 -0.0059772413 0.0017805516 -0.07264976 0.009914894
-0.10336075 -0.053633384 -0.042752214 -0.007865572 -0.03850614 0.054889273 -0.042384256 -0.13279219
0.077888966 -0.0778931 -0.028935334 0.13717148 -0.099667415 -0.11270152 0.06195632 -0.066756204
0.011860673 0.13924009 -0.07775513 -0.0004086366 -0.016631499 -0.12372329 -0.059269518 -0.10503734
0.044208657 -0.02284376 0.011893599 -0.10539175 0.11344307 0.2147688 0.1478063 0.09371786
-0.06306887 0.063252844 0.028368117 -0.01318022 0.058392216 0.099986024 -0.033665884 0.04267541
0.015350896 0.27490383 -0.061848346 0.03075671 0.056524277 0.082738616 0.049525887 0.1761674
0.24216448 -0.15841737 0.087738864 -0.063179836 0.17796019 0.18958832 -0.018738274 -0.13447979
-0.085389 -0.01036759 0.066522874 -0.16891316 -0.06437351 -0.16057044 0.030400546 -0.08115801
0.113392845 0.13100609 0.022677656 -0.060158566 0.030548861 -0.11995477 -0.053072434 0.1658742
-0.16535716 0.11242875 -0.07698895 0.16326976 0.025072372 0.053641655 -0.19428004 0.1161803
0.041956704 0.089636944 -0.04066599 0.10293661 0.035703894 0.054780688 -0.030353716 0.026216626
-0.17271376 -0.093038075 0.0401888 -0.14280233 0.009271775 -0.047027163 0.09697262 -0.13715953
0.10408322 -0.14919055 -0.19798636 0.12339364 -0.127285 0.041304864 0.16025507 -0.1796354
-0.15373057 0.0041284673 -0.08156933 -0.081932835 -0.07835447 -0.032771852 -0.03495496 0.08192241
0.1366998 0.02605419 -0.013282153 -0.17533374 0.023276279 0.009712582 0.0182266 0.05708773
0.11598601 0.02272202 0.045357913 -0.020817984 0.1425702 -0.16549735 -0.16456757 0.036635015
0.015253061 -0.026808832 0.107148655 0.09998724 0.010562261 -0.032809883 -0.049863234 -0.06603508
0.1449762 -0.1092419 -0.15694031 -0.07526981 0.09805093 -0.1732917 0.09215544 0.093102045
0.01941811 -0.030642584 -0.09859571 -0.03090094 0.17552722 -0.05140968 0.11862459 0.11876546
-0.14161716 0.01914392 -0.09990614 0.084254645 0.049071796 0.12605172 0.023548432 0.14177214
00000000: c566 09be bcbf 1c3e 43e8 2f3e a790 d6bc
00000010: 3074 35be 1ed8 603e 00cb 243e f4d7 09bd
00000020: 300a cfba 162a bbbb c0d1 21be 6e43 97bd
00000030: 3c5c 533e 59dd d0bd f059 0f3b 9f24 7cbd
00000040: 823b 6b3d 0717 25be 7b4f a6bc 32b0 a9bd
00000050: a858 28be b7ad 323a 25cb 09be e876 e53c
00000060: 691c 43bd 43cb 213e 3a43 b6bc 9c60 ebbd
00000070: abeb 28be 3433 32be 3023 9ebd 60c4 a1bd
00000080: 7597 c5bd 4374 17be 8a0a 59bd 8221 d43c
00000090: 788e be3d 9eda 0f3d f121 4f3c 1889 b43d
000000a0: 7038 07be 622a 09be f16b 39bb ec54 01be
000000b0: f832 a6bd 3d0f c0bd 9e98 473e 1a2c 023d
000000c0: 5247 34bd 5678 a93c 6194 6b3e 5533 c2bd
000000d0: 7b77 383b adaa 113d 6763 f83d e00c 15be
000000e0: 4aff 6ebd 8b39 87bc 63d4 4a3e 0062 033d
000000f0: de89 aabd 0a3b 023e 57c8 2abe 95fb 9cbc
00000100: 4343 0bbe f350 1c3e 5583 f1bd 843b b23d
00000110: c40e 323d 73e6 bfbd b626 ca3d 47e0 b33d
00000120: 67d6 87bd 1276 76bd 23e6 0f3d 949f 74bc
00000130: a642 d6bd 7607 9bbc af21 abbd 9307 a4bc
00000140: f5cd bdbd a02b f1bd 1248 053d a861 d93d
00000150: f20a a23c 93eb 58be fda7 ddbd 0ef7 dd3c
00000160: 7b77 d4bd 8841 c0bd b2c1 a63d 308f b93d
00000170: bcdc c3bb 6661 e93a 66c9 94bd 1472 223c
00000180: cdae d3bd aeae 5bbd f21c 2fbd 9ade 00bc
00000190: 9db8 1dbd 93d3 603d 1d9b 2dbd adfa 07be
000001a0: 4084 9f3d 6b86 9fbd cb09 edbc ae76 0c3e
000001b0: 6e1e ccbd 0ed0 e6bd e9c5 7d3d 7ab7 88bd
000001c0: 4553 423c f494 0e3e 153e 9fbd 473e d6b9
000001d0: c83e 88bc a362 fdbd 98c4 72bd d11d d7bd
000001e0: 2314 353d d622 bbbc 5fdd 423c a1d7 d7bd
000001f0: d754 e83d 5aec 5b3e 895a 173e 26ef bf3d
00000200: 402a 81bd b58a 813d 4164 e83c d9f1 57bc
00000210: ad2c 6f3d 79c5 cc3d 3de5 09bd 69cc 2e3d
00000220: 5382 7b3c 32c0 8c3e b154 7dbd 7ff5 fb3c
00000230: 0086 673d dd72 a93d a8db 4a3d 3a65 343e
00000240: f7f9 773e 2a38 22be 6fb0 b33d 6e64 81bd
00000250: 323b 363e 7123 423e 0281 99bc 12b5 09be
00000260: 6ee0 aebd d3dc 29bc 253d 883d 92f7 2cbe
00000270: 42d6 83bd 946c 24be 910a f93c 2c36 a6bd
00000280: 823a e83d 7626 063e 7ec6 b93c d468 76bd
00000290: 9b41 fa3c d9aa f5bd 7b62 59bd edda 293e
000002a0: 6353 29be 0b41 e63d 62ac 9dbd 3030 273e
000002b0: 9364 cd3c 5ab7 5b3d 59f1 46be f0ef ed3d
000002c0: cbda 2b3d 9393 b73d 6291 26bd 6ed0 d23d
000002d0: 3f3e 123d b761 603d 5ba8 f8bc 40c4 d63c
000002e0: e0db 30be bf8a bebd 039d 243d c63a 12be
000002f0: a5e8 173c 8e9f 40bd 9599 c63d 8c73 0cbe
00000300: 9529 d53d 68c5 18be f0bc 4abe ceb5 fc3d
00000310: 0057 02be 4a2f 293d e819 243e 58f2 37be
00000320: 8c6b 1dbe 1848 873b d20d a7bd 67cc a7bd
00000330: 4f78 a0bd c73b 06bd ef2c 0fbd f0c6 a73d
00000340: 08fb 0b3e 996f d53c 639d 59bc b08a 33be
00000350: e5ad be3c 8621 1f3c f34f 953c d3d4 693d
00000360: 138a ed3d 8823 ba3c 38c9 393d 7a8a aabc
00000370: ecfd 113e 2378 29be 6784 28be 990e 163d
00000380: fae7 793c 329e dbbc c170 db3d 1cc6 cc3d
00000390: 550d 2d3c a863 06bd 643d 4cbd 663d 87bd
000003a0: a474 143e 38ba dfbd f6b4 20be 0f27 9abd
000003b0: edce c83d 6173 31be febb bc3d 49ac be3d
000003c0: ba12 9f3c 2806 fbbc 8cec c9bd f823 fdbc
000003d0: 68bd 333e f592 52bd 73f1 f23d 4e3b f33d
000003e0: 1704 11be b6d3 9c3c 979b ccbd b38d ac3d
000003f0: 82ff 483d b413 013e a4e8 c03c b72c 113e

weight f4 [256, 512]
-0.05396887 -0.16252512 0.07780719 0.08810445 -0.061172903 0.01842597 0.009186096 0.059500832
0.008303261 -0.15859263 0.0268307 -0.0073997974 -0.051654372 0.045696817 0.053855732 -0.1430605
0.04299683 0.02965959 0.051078204 0.06860088 0.013796681 0.054271344 0.029168947 0.02950681
0.012092657 -0.022599757 0.058629885 0.029178748 7.99844e-05 0.052641638 -0.06924508 -0.06012445
-0.08339364 -0.07644175 0.06690068 -0.007243684 -0.02294881 0.038454466 -0.005307366 -0.01517579
0.058338914 -0.07315455 -0.026076162 -0.04185437 -0.013758985 0.06406493 0.07321186 0.09368305
-0.03804017 -0.028070124 0.093120955 0.029027184 0.07276474 0.0747831 0.033475347 -0.018204195
0.033471283 0.029332276 0.046101283 0.022552805 -0.06898954 0.03488179 -0.015787005 0.042204488
-0.05345482 0.031088125 0.06350805 0.0009830594 -0.0029749067 0.0388858 -0.013989352 0.045441918
0.08995702 0.08408859 -0.010420983 0.0067566093 -0.045235317 -0.006135331 0.108661294 -0.038430065
-0.031201985 -0.018296354 -0.051271047 0.06824725 -0.0916425 -0.07389583 -0.03427155 0.061749388
0.016025271 0.058528926 0.03862831 0.050382268 0.062307544 0.016141891 -0.0049939677 0.047160633
-0.0481705 -0.008085956 -0.020915324 0.077676 -0.061820682 0.07269364 -0.02968522 -0.034361914
0.05964544 -0.05955297 0.042405363 -0.05867277 -0.067321815 0.040422738 0.009123602 0.010085125
0.0313983 0.025121013 -0.037789486 0.026555452 0.008963323 0.026317151 -0.022044513 0.035494927
-0.0014335852 -0.016521504 0.06952781 -0.0978866 0.039756518 0.033113103 0.104739144 0.060420483
-0.085440174 0.022504773 0.012588335 -0.105864905 -0.0194212 -0.008355643 0.02160576 0.01615038
-0.071646005 -0.0561733 -0.09419995 -0.028191645 0.06822342 0.02200065 0.079188235 0.03013972
-0.0054227225 0.034424916 0.016865889 -0.11427519 0.080631815 0.16179948 0.061443105 -0.04395394
0.07683903 0.08566056 -0.024874112 -0.04007398 0.045158125 -0.098220475 -0.07843905 0.015105181
0.056066725 -0.028666614 -0.09810031 -0.016753145 -0.058649108 -0.047802143 0.040315084 0.05290682
0.013873401 -0.046622943 0.023305366 0.08475604 0.017143467 0.038880505 -0.10408119 -0.022789756
0.016878355 0.07670098 0.06547879 0.03190726 -0.017462727 -0.012884526 -0.013643448 0.06138147
-0.03483048 -0.060226917 -0.000116071176 -0.042724233 0.0818367 -0.02414636 0.026081411 0.04381088
0.0080411425 0.09198548 -0.05776076 -0.050722115 0.06682889 -0.0031774237 0.03573616 -0.067931704
-0.045870587 0.093768165 -0.07862629 0.13144422 0.037362535 -0.027503215 -0.012497921 0.105452925
0.09463437 -0.048747197 -0.034613263 0.017829336 0.033809714 0.021208476 -0.034696173 0.01746078
0.06283573 0.082959846 0.0435241 -0.00892829 -0.0417963 -0.1256828 0.017176995 0.029268945
0.018460995 -0.009250345 0.09222346 -0.03384911 0.010913112 0.0009286318 0.12727441 0.031797055
0.001373357 -0.032096148 -0.033071786 0.016128432 0.09272849 -0.052033853 0.0450392 -0.032136638
0.077828296 -0.06938323 0.04296899 -0.024941145 0.0070731025 -0.039430555 -0.023865545 0.06654571
-0.078053236 -0.08517025 0.07392897 -0.025426846 -0.01367269 -0.03322498 0.04905711 -0.0570552
00000000: 760e 5dbd fc6c 26be 6059 9f3d 1b70 b43d
00000010: 7090 7abd 0ff2 963c 4781 163c 25b7 733d
00000020: 670a 083c 1b66 22be 0ecc db3c 007a f2bb
00000030: 8993 53bd 962c 3b3d d497 5c3d 747e 12be
00000040: 721d 303d abf8 f23c 6137 513d 9e7e 8c3d
00000050: 790b 623c a14b 5e3d b7f3 ee3c 44b8 f13c
00000060: 4820 463c 2023 b9bc e425 703d 4508 ef3c
00000070: 4cbd a738 c29e 573d 5dd0 8dbd 0e45 76bd
00000080: 49ca aabd 7e8d 9cbd 3903 893d 6d5c edbb
00000090: 25ff bbbc 6e82 1d3d 6ae9 adbb e0a3 78bc
000000a0: c9f4 6e3d 0dd2 95bd ad9d d5bc 7d6f 2bbd
000000b0: 5e6d 61bc 7934 833d 1af0 953d e6dc bf3d
000000c0: 02d0 1bbd 51f3 e5bc 33b6 be3d 6bca ed3c
000000d0: ae05 953d e227 993d 721d 093d f720 95bc
000000e0: 2f19 093d 3e4a f03c b3d4 3c3d a9c0 b83c
000000f0: 634a 8dbd 35e0 0e3d c053 81bc 9dde 2c3d
00000100: 71f3 5abd 86ac fe3c 8210 823d 00da 803a
00000110: a7f6 42bb b746 1f3d 9833 65bc 4e21 3a3d
00000120: 633b b83d a436 ac3d c5bc 2abc 8c66 dd3b
00000130: ab48 39bd e30a c9bb d089 de3d d868 1dbd
00000140: 4e9b ffbc 3ce2 95bc 9701 52bd 37c5 8b3d
00000150: 10af bbbd b256 97bd 5360 0cbd edec 7c3d
00000160: 6e47 833c 07bc 6f3d b838 1e3d a35d 4e3d
00000170: 3236 7f3d 003c 843c 70a4 a3bb 822b 413d
00000180: 6e4e 45bd f57a 04bc 9d56 abbc 9814 9f3d
00000190: af37 7dbd 67e0 943d 6b2e f3bc 14bf 0cbd
000001a0: c74e 743d d1ed 73bd 3fb1 2d3d dc52 70bd
000001b0: 05e0 89bd 5092 253d 297b 153c 153c 253c
000001c0: 819b 003d 95ca cd3c 26c9 1abd d28a d93c
000001d0: e7da 123c 1197 d73c b296 b4bc 2163 113d
000001e0: 23e7 bbba 1b58 87bc 9964 8e3d c578 c8bd
000001f0: bbd7 223d 9ba1 073d 7a81 d63d 787b 773d
00000200: 42fb aebd ee5b b83c 4e3f 4e3c b3cf d8bd
00000210: 3519 9fbc 1be6 08bc 90fe b03c cd4d 843c
00000220: 24bb 92bd f915 66bd e7eb c0bd 2af2 e6bc
00000230: b8b8 8b3d b53a b43c 712d a23d 93e7 f63c
00000240: 18b1 b1bb 2401 0d3d 552a 8a3c 1c09 eabd
00000250: 4b22 a53d c3ae 253e c4ab 7b3d 0c09 34bd
00000260: c85d 9d3d ce6e af3d cbc4 cbbc 9d24 24bd
00000270: baf7 383d d127 c9bd a7a4 a0bd b97b 773c
00000280: 39a6 653d 3fd6 eabc d1e8 c8bd e43d 89bc
00000290: 0c3a 70bd 2ecc 43bd 6e21 253d d2b4 583d
000002a0: 434d 633c b3f7 3ebd e5ea be3c 9394 ad3d
000002b0: 7570 8c3c 2a41 1f3d 8528 d5bd 95b1 babc
000002c0: 7a44 8a3c 6715 9d3d be19 863d 30b1 023d
000002d0: fe0d 8fbc 9e19 53bc c588 5fbc 236b 7b3d
000002e0: 68aa 0ebd 80b0 76bd 3d6b f3b8 9bff 2ebd
000002f0: 009a a73d 96ce c5bc afa8 d53c 0a73 333d
00000300: ffbe 033c e262 bc3d 8c96 6cbd fec1 4fbd
00000310: 96dd 883d 533c 50bb 1460 123d c71f 8bbd
00000320: cce2 3bbd 8609 c03d d206 a1bd 5099 063e
00000330: 7509 193d 6c4e e1bc 14c4 4cbc b4f7 d73d
00000340: aacf c13d 24ab 47bd a3c6 0dbd d40e 923c
00000350: 0e7c 0a3d 66bd ad3c 931d 0ebd e909 8f3c
00000360: 05b0 803d dae6 a93d 5446 323d f647 12bc
00000370: 9932 2bbd feb2 00be c5b6 8c3c 6dc5 ef3c
00000380: 833b 973c c28e 17bc a7df bc3d 5da5 0abd
00000390: e9cc 323c 6d6f 733a 3954 023e a13d 023d
000003a0: 3702 b43a 4077 03bd 4876 07bd c61f 843c
000003b0: 6fe8 bd3d 7321 55bd 067b 383d b5a1 03bd
000003c0: 7164 9f3d cb18 8ebd 4000 303d 5f51 ccbc
000003d0: 7cc5 e73b ef81 21bd ad81 c3bc 1e49 883d
000003e0: 60da 9fbd bd6d aebd 1268 973d f64b d0bc
000003f0: 6b03 60bc eb16 08bd 1cf0 483d b7b2 69bd

bias f4 [256]
0.060441554 -0.029758207 0.04943265 -0.005850694 -0.025127372 0.028846351 -0.07027603 -0.05571123
-0.012891654 0.027644586 -0.029883215 -0.067453876 -0.124017544 -0.058153532 0.015025188 -0.009820707
-0.05529903 0.03839901 -0.09735744 -0.019199405 -0.07453408 -0.002479647 -0.07516226 -0.033839155
-0.09343256 -0.075790904 -0.050915197 -0.01587839 -0.031030985 0.027878437 0.028296463 -0.0656911
0.010071607 -0.028435055 -0.017337048 0.0025607666 -0.062194012 -0.108114704 -0.014410033 -0.006405369
-0.05535762 -0.009125765 0.05452629 0.036798675 0.046583883 -0.0059772404 0.036747046 -0.003036739
-0.028614338 -0.0091399895 0.04890058 -0.060128026 -0.018734928 0.00087541505 0.03927108 -0.120345995
-0.04061327 0.035961516 0.019848049 -0.09161927 -0.011038793 -0.031971317 -0.026384152 -0.023647774
-0.008802551 0.008741756 -0.080324404 -0.017161937 -0.034794897 -0.0615382 -0.003611395 -0.034577
0.022736235 -0.059998468 0.03054527 -0.07426733 0.066736385 0.051664814 0.0052294023 -0.041110754
0.0027715224 -0.031154342 -0.045752577 -0.0061082 0.0014618478 -0.062670186 -0.025451789 -0.0035942101
-0.0551519 -0.021050686 0.044489402 -0.029400062 -0.022894053 -0.08604511 -0.033401955 -0.030818446
-0.05224548 -0.027074875 0.033766497 -0.07098595 -0.022454826 -0.05343962 -0.0077929306 -0.031327087
-0.060655337 -0.06404646 -0.028281447 -0.0057525905 0.072039425 -0.08635801 -0.0619262 -0.056975394
-0.011514188 -0.07800245 -0.014204459 -0.08597374 -0.040042736 0.024346322 -0.029612685 -0.041646536
-0.013525989 0.048344005 -0.069078624 -0.0094884215 -0.08941907 0.0066822222 -0.07255947 0.04312261
-0.014814417 -0.04039551 0.002258022 -0.06890219 -0.026617553 0.07830072 0.071657814 -0.03770604
-0.069137186 0.03189056 -0.016340243 -0.035188306 -0.0404505 0.006234061 -0.014317776 -0.041168887
-0.047876023 -0.09970857 -0.006867734 -0.05175692 0.03182217 0.01652749 -0.053558636 -0.10376662
-0.015871936 0.06554114 0.04107824 -0.03957109 -0.022021445 0.04021648 -0.03673407 0.020820867
-0.027206214 0.027367707 -0.110366724 -0.07031477 -0.060666382 -0.031269383 0.006996071 0.012037217
-0.005175814 -0.10041897 0.0044539324 -0.05133908 0.026560241 -0.041031484 -0.11296054 -0.03996873
0.013693949 0.035971794 0.023630306 -0.03656688 -0.089484125 0.022029134 0.018417988 0.030024165
0.0032333636 -0.03045425 -0.08035343 -0.013120171 -0.012124222 -0.029468214 -0.0037438038 0.019811273
-0.044634685 0.047795568 -0.03843087 -0.042488206 -0.044699516 -0.021492694 0.026723353 -0.0036013196
0.035233717 0.013319586 0.00027128705 -0.032243744 0.053295825 -0.056268994 -0.039096266 -0.07089688
0.041645322 0.0031771313 -0.020735875 -0.057197772 -0.0065004933 -0.027632076 -0.042247225 -0.06784601
-0.060195636 -0.012639415 -0.06524624 -0.01222397 -0.0070661036 0.029807115 0.0010074031 0.032050356
-0.069288254 -0.11793561 0.08569353 -0.023793235 -0.04447838 -0.027748277 -0.043527596 -0.04331766
-0.0718249 -0.0032864318 -0.06000558 0.011675137 -0.01937533 -0.115895525 -0.019129002 0.013691971
0.007002144 -0.08547528 -0.04972289 -0.018121408 -0.048106395 1.5582813e-05 -0.027186638 -0.07514479
-0.014011403 -0.0418737 -0.010606099 0.03516311 -0.03194559 -0.12218326 -0.06920142 -0.11682162
00000000: 9091 773d 7cc7 f3bc e479 4a3d 2eb7 bfbb
00000010: ebd7 cdbc 2f4f ec3c e1ec 8fbd 7531 64bd
00000020: 8437 53bc e676 e23c a5cd f4bc 4225 8abd
00000030: e9fc fdbd 6632 6ebd 352c 763c 08e7 20bc
00000040: 3c81 62bd 4848 1d3d 5663 c7bd 1248 9dbc
00000050: 53a5 98bd 9381 22bb acee 99bd ed9a 0abd
00000060: 9259 bfbd 4338 9bbd 748c 50bd 6613 82bc
00000070: b134 febc 5261 e43c fccd e73c 0e89 86bd
00000080: 6203 253c a2f0 e8bc 6d06 8ebc 89d2 273b
00000090: 26bf 7ebd 3e6b ddbd 0f18 6cbc 21e4 d1bb
000000a0: acbe 62bd 3c84 15bc f656 5f3d 35ba 163d
000000b0: bece 3e3d badc c3bb 1284 163d 0704 47bb
000000c0: 9e68 eabc e5bf 15bc f94b 483d ce48 76bd
000000d0: fe79 99bc 1c7c 653a b6da 203d f677 f6bd
000000e0: 1a5a 26bd 624c 133d 6098 a23c e2a2 bbbd
000000f0: 0edc 34bc 5bf4 02bd 9423 d8bc fab8 c1bc
00000100: 9338 10bc 9539 0f3c 1f81 a4bd 3197 8cbc
00000110: 1885 0ebd 7b0f 7cbd 27ad 6cbb 9da0 0dbd
00000120: 5741 ba3c f4c0 75bd 133a fa3c 7819 98bd
00000130: 16ad 883d 7c9e 533d 685b ab3b c063 28bd
00000140: 6ea2 353b 6437 ffbc 0e67 3bbd 4c27 c8bb
00000150: 799b bf3a 3a59 80bd 4580 d0bc d78c 6bbb
00000160: f5e6 61bd 7d72 acbc 853a 363d 66d8 f0bc
00000170: 4f8c bbbc 6b38 b0bd 7dd0 08bd f776 fcbc
00000180: 5bff 55bd 21cc ddbc bd4e 0a3d 1561 91bd
00000190: 2ff3 b7bc 81e3 5abd d75b ffbb d550 00bd
000001a0: bb71 78bd ca2a 83bd 7eae e7bc 3a80 bcbb
000001b0: 6889 933d 78dc b0bd 54a6 7dbd 085f 69bd
000001c0: 01a6 3cbc c0bf 9fbd d2b9 68bc 0013 b0bd
000001d0: da03 24bd f071 c73c 4d96 f2bc 8f95 2abd
000001e0: 1c9c 5dbc 5d04 463d 1879 8dbd 5375 1bbc
000001f0: 5821 b7bd 8bf6 da3b 0f9a 94bd 55a1 303d
00000200: 2bb8 72bc c375 25bd 53fb 133b 971c 8dbd
00000210: 0e0d dabc 215c a03d 55c1 923d a671 1abd
00000220: cc97 8dbd ad9f 023d f9db 85bc 9d21 10bd
00000230: 6caf 25bd 1847 cc3b 1b95 6abc b5a0 28bd
00000240: a619 44bd 0234 ccbd ba0a e1bb 10ff 53bd
00000250: f757 023d a964 873c 4d60 5bbd 9883 d4bd
00000260: dd05 82bc 6f3a 863d a841 283d 4c15 22bd
00000270: 5166 b4bc 09ba 243d 7776 16bd 8690 aa3c
00000280: 91df debc 3e32 e03c f307 e2bd 3101 90bd
00000290: 507d 78bd 5314 00bd 4c3f e53b bf37 453c
000002a0: e099 a9bb 76a8 cdbd 4bf2 913b ed48 52bd
000002b0: dd94 d93c a110 28bd db57 e7bd 40b6 23bd
000002c0: 965c 603c 2957 133d 5894 c13c 27c7 15bd
000002d0: 7443 b7bd 7176 b43c 52e1 963c 3df5 f53c
000002e0: d7e6 533b 317b f9bc 5790 a4bd fcf5 56bc
000002f0: aca4 46bc 5367 f1bc 9b5a 75bb 404b a23c
00000300: dcd2 36bd 49c5 433d b069 1dbd 1d08 2ebd
00000310: d716 37bd 7211 b0bc efea da3c 1e04 6cbb
00000320: 3b51 103d 653a 5a3c 883b 8e39 0412 04bd
00000330: b94c 5a3d 517a 66bd 6823 20bd 6232 91bd
00000340: 4994 2a3d 6b37 503b 48de a9bc 3648 6abd
00000350: 1702 d5bb aa5c e2bc 6d0b 2dbd d9f2 8abd
00000360: b38f 76bd 8d15 4fbc d29f 85bd 0c47 48bc
00000370: c68a e7bb 0d2e f43c d70a 843a 3c47 033d
00000380: 00e7 8dbd 3a88 f1bd 1780 af3d 08ea c2bc
00000390: f62e 36bd 5b50 e3bc fe49 32bd dc6d 31bd
000003a0: ef18 93bd 2d61 57bb 69c8 75bd 1349 3f3c
000003b0: 03b9 9ebc a25a edbd 6db4 9cbc 4a54 603c
000003c0: 3e72 e53b aa0d afbd 3baa 4bbd 5973 94bc
000003d0: 360b 45bd d6b7 8237 83b6 debc 83e5 99bd
000003e0: 1590 65bc c283 2bbd 34c5 2dbc 3107 103d
000003f0: 61d9 02bd 383b fabd 79b9 8dbd 2c40 efbd

weight f4 [128, 256]
-0.12193266 -0.04023488 -0.005678439 0.049088188 -0.20699205 0.012990951 0.0765763 -0.011015585
-0.06348436 -0.008188186 -0.051744994 -0.09133447 -0.11592128 0.026791919 0.0032565938 -0.16406403
-0.027013902 0.0027577057 -0.006075651 0.046675865 0.06806234 -0.03476305 -0.10370419 0.053056832
0.007889361 0.09589423 0.08793444 -0.03734689 -0.028588325 -0.118062824 -4.0975377e-05 0.12774356
0.06641849 -0.12647891 0.1654913 -0.035981417 0.040534332 0.062930495 -0.029129246 -0.032748405
0.029621867 0.07611808 0.052870296 0.047196206 -0.105295956 -0.038062036 -0.01443305 -0.012579358
-0.016326813 -0.046151485 -0.017242879 0.14942668 -0.04469529 -0.051062737 0.028382642 0.0043138
-0.10347917 -0.108174816 -0.002993072 0.028281242 0.062474754 0.010527429 -0.014761935 0.056898374
0.09082154 0.055482205 -0.005651271 -0.14383467 -0.13677214 0.10239135 -0.015459802 -0.04331247
0.04221485 0.12650433 -0.10369783 0.0026561208 0.0069765337 0.0099694645 -0.036122493 0.08136195
-0.017356763 0.049113903 0.10861161 -0.06283483 -0.0012591239 -0.10073848 0.0012997355 -0.14161097
0.014652499 -0.026421372 0.08254413 -0.09368788 -0.054942567 -0.0077069337 -0.03804583 -0.093114085
0.042680383 0.028740227 -0.024046823 0.096669085 -0.10880466 0.013345899 0.058744844 0.032148987
-0.008928083 -0.03393467 -0.016692052 -0.04692701 0.04349344 0.05780012 -0.08687126 -0.055025455
-0.09838319 0.07237572 -0.06710583 0.05000688 0.09917386 0.07292919 -0.111745566 -0.003565626
0.038962748 -0.097049676 0.03693872 0.021658404 0.016420692 -0.015477955 0.06075078 -0.07173673
-0.08009718 0.05986859 0.004260731 -0.13392727 0.03614605 -0.025507968 0.0028397238 0.042395305
0.017354377 0.006981601 0.1012423 0.05157401 0.027680317 -0.06304099 0.007481408 0.070227005
-0.035742115 0.025886286 0.0005979984 -0.14518556 -0.103801325 -0.12100169 -0.020500207 -0.003821443
0.043706834 0.0009772208 -0.01795384 -0.03987597 0.09389652 -0.04221571 -0.04203944 0.025066238
-0.07926233 -0.011124213 0.036773875 0.015319181 -0.116814055 -0.012553744 0.02999766 -0.052824493
0.0013507518 -0.007012823 -0.057280693 0.021006845 0.042565666 -0.020459617 0.05337651 -0.14598025
-0.068369046 0.025490422 0.037467502 -0.030574005 -0.05203231 -0.022493772 -0.08264288 -0.08185867
0.06429202 0.029919093 -0.061616343 -0.0027879926 -0.09972517 -0.052679673 -0.012291354 -0.03396439
0.012346488 0.016896237 -0.04044165 -0.071194515 -0.09277639 0.013819602 0.008840822 0.11490181
-0.19253601 -0.05339992 0.07034245 -0.07005338 -0.09138513 -0.07183977 -0.18104658 0.05455058
0.12456453 0.017611092 0.0010756449 0.012183836 0.12846455 0.047980893 -0.013649299 -0.08764121
0.03149916 0.014042598 0.08890036 0.047704473 0.09403798 -0.12819204 0.08013223 0.06289509
-0.010526227 0.0063734446 -0.06997923 -0.06804072 -0.06488774 0.0082442425 -0.06644051 -0.077874236
0.03777928 -0.023103781 -0.0019801233 -0.05806225 -0.073675424 -0.011220752 -0.07419789 -0.06730211
0.044435073 0.10662904 -0.020301625 -0.015583333 0.0056543294 -0.2635021 -0.03544121 0.015085762
-0.097824186 0.0030772623 -0.04419371 -0.06046873 0.04450324 0.028598232 0.014711727 0.011894247
00000000: d5b7 f9bd 54cd 24bd 3312 babb b210 493d
00000010: b9f5 53be ffd7 543c 09d4 9c3d b67a 34bc
00000020: 1704 82bd be27 06bc 8ff2 53bd 910d bbbd
00000030: 2368 edbd ba7a db3c 946c 553b 6700 28be
00000040: 424c ddbc a0ba 343b 4116 c7bb 312f 3f3d
00000050: 4564 8b3d b363 0ebd dd62 d4bd 1f52 593d
00000060: 6142 013c 3264 c43d f916 b43d 0df9 18bd
00000070: 1032 eabc ecca f1bd fadc 2bb8 35cf 023e
00000080: 6b06 883d b083 01be 8d76 293e 4061 13bd
00000090: 5407 263d b4e1 803d 75a0 eebc 3123 06bd
000000a0: 8fa9 f23c cce3 9b3d 868e 583d cf50 413d
000000b0: 68a5 d7bd f0e6 1bbd 9978 6cbc a719 4ebc
000000c0: cfbf 85bc 5709 3dbd f040 8dbc 4f03 193e
000000d0: 6912 37bd 2927 51bd b782 e83c c75a 8d3b
000000e0: e3ec d3bd c28a ddbd 6a27 44bb 10ae e73c
000000f0: 87e5 7f3d 3d7b 2c3c 0bdc 71bc 450e 693d
00000100: a500 ba3d 4f41 633d 4c2e b9bb 6549 13be
00000110: ff0d 0cbe 8eb2 d13d 1c4b 7dbc 6b68 31bd
00000120: 7be9 2c3d 5a8a 013e 875f d4bd 5012 2e3b
00000130: 689b e43b f756 233c 2ef5 13bd 18a1 a63d
00000140: c52f 8ebc a92b 493d c46f de3d 8caf 80bd
00000150: 3009 a5ba fa4f cebd e35b aa3a 7702 11be
00000160: 0911 703c a271 d8bc e60c a93d 6edf bfbd
00000170: 750b 61bd 728a fcbb f2d5 1bbd 99b2 bebd
00000180: a0d1 2e3d a070 eb3c d8fd c4bc 71fa c53d
00000190: fad4 debd c2a8 5a3c 6f9e 703d a8ae 033d
000001a0: 1847 12bc 15ff 0abd c5bd 88bc 8936 40bd
000001b0: 2d26 323d d2bf 6c3d 8fe9 b1bd 5f62 61bd
000001c0: 207d c9bd b939 943d c86e 89bd 04d4 4c3d
000001d0: aa1b cb3d e65b 953d dcda e4bd 47ad 69bb
000001e0: 6797 1f3d fbc1 c6bd 0e4d 173d f76c b13c
000001f0: b084 863c 4097 7dbc cfd5 783d b5ea 92bd
00000200: fe09 a4bd c438 753d 9a9d 8b3b 3b24 09be
00000210: e10d 143d 16f6 d0bc a91a 3a3b b3a6 2d3d
00000220: c42a 8e3c eac5 e43b 1f58 cf3d 453f 533d
00000230: d5c1 e23c a21b 81bd 9926 f53b 2dd3 8f3d
00000240: 5366 12bd 7a0f d43c fec2 1c3a 86ab 14be
00000250: ca95 d4bd bccf f7bd 0df0 a7bc 2d71 7abb
00000260: f005 333d 1716 803a ee13 93bc fc54 23bd
00000270: d24c c03d 61ea 2cbd 8c31 2cbd b657 cd3c
00000280: 4a54 a2bd 5542 36bc 34a0 163d 4dfd 7a3c
00000290: 353c efbd 38ae 4dbc a7bd f53c 7f5e 58bd
000002a0: b60b b13a d3cb e5bb 299f 6abd 8c16 ac3c
000002b0: 5659 2e3d ed9a a7bc 54a1 5a3d d97b 15be
000002c0: 1205 8cbd 4ad1 d03c 8677 193d 5676 fabc
000002d0: d51f 55bd dc44 b8bc ac40 a9bd 85a5 a7bd
000002e0: 89ab 833d e318 f53c 6b61 7cbd c1b6 36bb
000002f0: b63c ccbd a4c6 57bd ad61 49bc 3f1e 0bbd
00000300: ed48 4a3c fa69 8a3c 25a6 25bd 6ece 91bd
00000310: 8c01 bebd 9d6b 623c 18d9 103c a451 eb3d
00000320: 2928 45be e0b9 5abd b40f 903d 2678 8fbd
00000330: 2128 bbbd bb20 93bd 4664 39be 6e70 5f3d
00000340: b01b ff3d 2345 903c a7fc 8c3a b69e 473c
00000350: 368c 033e 9d87 443d 4fa1 5fbc 3c7d b3bd
00000360: 4305 013d ed12 663c 6411 b63d c465 433d
00000370: fc96 c03d c644 03be 5e1c a43d 24cf 803d
00000380: 3276 2cbc 54d8 d03b 4551 8fbd ef58 8bbd
00000390: dde3 84bd dc12 073c f611 88bd 877c 9fbd
000003a0: 72be 1a3d 2444 bdbc f5c4 01bb afd2 6dbd
000003b0: 24e3 96bd 3fd7 37bc 10f5 97bd b0d5 89bd
000003c0: 8d01 363d 5360 da3d 984f a6bc 3c51 7fbc
000003d0: f447 b93b bfe9 86be cd2a 11bd 462a 773c
000003e0: 0c58 c8bd e5ab 493b 7704 35bd 0fae 77bd
000003f0: 0849 363d d746 ea3c 7509 713c 16e0 423c

bias f4 [128]
0.009181542 -0.011540188 -0.020702403 0.039442427 -0.011703202 0.04249897 -0.0057570203 -0.014932739
-0.07822357 0.003596886 0.03157781 -0.0020989615 -0.028958635 -0.064376645 -0.110823736 0.0288245
0.005765614 0.07424239 -0.0750576 -0.038832452 0.060327448 0.028865404 -0.050492678 -0.030229473
-0.06438834 0.043533698 -0.06323179 -0.035441816 -0.015169729 0.035868894 0.026328351 -0.12988366
-0.025485445 -0.10724275 -0.04345304 0.008748017 0.029702958 0.052927103 -0.08878378 -0.047728676
0.041758254 -0.0039794785 -0.011231155 -0.047405805 -0.0013966149 0.011898261 0.0383931 -0.08788726
-0.14006095 -0.061082162 -0.053186905 -0.029475965 -0.022086455 -0.098128475 -0.034634266 -0.023954479
0.066188425 0.021473208 0.023582194 -0.035511777 -0.08357332 -0.005785704 -0.024641104 -0.02882777
-0.031793945 -0.09707862 -0.061237928 -0.062466893 0.010317866 -0.11297775 0.007963497 0.03908072
-0.06118344 0.029342705 -0.04664958 -0.019652247 0.039090794 -0.05023607 -0.016202478 0.018247806
0.042370982 0.04204972 -0.06531763 -0.06409255 0.048802897 -0.041164223 0.029248059 -0.075471744
-0.13719974 -0.020482471 -0.062340263 -0.00273316 0.05352752 -0.037121568 0.05737654 -0.06725199
-0.06937696 -0.14370082 -0.016710153 -0.10008081 -0.0007829105 -0.07671141 -0.011738383 -0.046406966
0.026412854 0.01291798 -0.008121857 -0.053544097 -0.047310717 -0.03552007 -0.004138685 -0.028057747
-0.03520488 -0.08393129 -0.04633028 -0.016796421 0.021333411 -0.0574354 -0.057521325 0.009367335
-0.004130956 0.030079488 -0.054930877 0.08787888 -0.03408302 0.0028415355 -0.03023851 -0.070325054
00000000: 2e6e 163c 0f13 3dbc 1698 a9bc 628e 213d
00000010: c9be 3fbc 6613 2e3d 63a5 bcbb 72a8 74bc
00000020: ae33 a0bd bcb9 6b3b bc57 013d bb8e 09bb
00000030: a93a edbc e7d7 83bd 8ef7 e2bd 5c21 ec3c
00000040: 7aed bc3b 650c 983d cdb7 99bd c70e 1fbd
00000050: ea19 773d 2477 ec3c 69d1 4ebd cda3 f7bc
00000060: 09de 83bd 6450 323d ab7f 81bd 702b 11bd
00000070: 748a 78bc 43eb 123d 8eae d73c 3900 05be
00000080: dac6 d0bc 16a2 dbbd d1fb 31bd d853 0f3c
00000090: 9e53 f33c 17ca 583d 45d4 b5bd 257f 43bd
000000a0: b40a 2b3d 4966 82bb e102 38bc 972c 42bd
000000b0: 9f0e b7ba ecf0 423c 1542 1d3d 3cfe b3bd
000000c0: 236c 0fbe 4a31 7abd 83da 59bd 9477 f1bc
000000d0: a7ee b4bc 95f7 c8bd a9dc 0dbd 2f3c c4bc
000000e0: cc8d 873d 95e8 af3c 722f c13c cc74 11bd
000000f0: 7d28 abbd 0196 bdbb 24dc c9bc 3728 ecbc
00000100: 5e3a 02bd 28d1 c6bd 9fd4 7abd 49dd 7fbd
00000110: 440c 293c e160 e7bd 5479 023c 1b13 203d
00000120: 7d9b 7abd 1d60 f03c a113 3fbd c0fd a0bc
00000130: ab1d 203d 56c4 4dbd 0fbb 84bc 6c7c 953c
00000140: 328d 2d3d 543c 2c3d 40c5 85bd f442 83bd
00000150: 8ce5 473d d19b 28bd a099 ef3c ee90 9abd
00000160: 177e 0cbe dbca a7bc 8158 7fbd d11e 33bb
00000170: ac3f 5b3d c90c 18bd aa03 6b3d 69bb 89bd
00000180: 8215 8ebd 4f26 13be bbe3 88bc 2bf7 ccbd
00000190: 3c3c 4dba df1a 9dbd 5952 40bc 3b15 3ebd
000001a0: c55f d83c efa5 533c 8a11 05bc 0e51 5bbd
000001b0: e2c8 41bd 7e7d 11bd ce9d 87bb 5cd9 e5bc
000001c0: fe32 10bd 2be4 abbd d2c4 3dbd a698 89bc
000001d0: 68c3 ae3c 6241 6bbd 7b9b 6bbd 7379 193c
000001e0: f85c 87bb 4269 f63c 33ff 60bd d8f9 b33d
000001f0: a39a 0bbd 0e39 3a3b c0b6 f7bc 9506 90bd

weight f4 [12, 128]
0.072883055 0.020499885 0.024556536 -0.020562306 -0.022508783 0.06273044 0.0929645 0.17696692
-0.07944696 0.07142673 0.09743609 -0.0009657406 0.02775166 0.0116802 -0.04892201 -0.097170964
0.08520116 0.038948312 -0.023966132 0.024767416 0.11879024 -0.12612675 0.06581152 0.036577035
-0.06340995 0.052031763 0.0062790127 -0.02678456 -0.008123059 -0.050090473 -0.026299683 -0.0028392535
-0.06379471 -0.02831821 0.021087147 -0.039890263 0.13785757 0.0010479928 -0.028752621 0.008767575
-0.00094372354 0.030808052 -0.017622838 0.026545005 0.053489238 0.015424056 -0.07711633 0.0005152851
0.03952191 -0.044497866 0.03516775 -0.08530528 0.06684123 -0.07517376 0.035645623 0.077075765
-0.051383067 0.0024773662 -0.100914665 -0.019972624 -0.026854865 -0.06465486 -0.011940358 -0.06614416
0.08931404 0.012345336 -0.0916185 0.026737565 0.06691708 -0.111270905 -0.15973398 0.06538622
-0.025109077 0.005596816 -0.10686503 -0.0024419648 0.027271004 0.116861455 0.04985961 0.025418006
0.012045105 -0.039912444 0.017160479 0.049683023 -0.07235139 0.054177213 0.00034969836 0.07730922
0.102251515 -0.014413399 0.081703976 -0.003455235 -0.111865304 0.062026277 0.020290924 0.023676883
-0.064408064 -0.030321073 -0.0974136 0.041822057 -0.014395286 -0.034933705 0.046123408 0.05601723
0.103911825 0.049237493 0.06309139 0.017034959 -0.046485785 -0.12531333 -0.07336866 -0.1225002
0.031735197 -0.0026315479 -0.026675157 -0.011198322 -0.07917667 0.027148064 -0.038298726 0.0051195812
0.06562728 -0.037076224 -0.035797443 -0.017595641 -0.07521101 -0.09355637 0.027457554 -0.038658332
0.03709599 0.028413348 -0.01649228 0.103227146 -0.12253493 -0.025002927 0.0133462455 0.04091471
-0.11363783 0.06658399 0.04901121 -0.06380091 -0.13370295 0.022217086 0.016124787 0.055370864
-0.1195276 -0.0048455563 -0.03932469 -0.009165917 0.042704143 0.09167203 0.012028367 0.011043052
0.039730348 0.09125002 -0.046171583 0.11531444 -0.061188973 0.019795643 -0.017982239 0.0575204
0.038493942 -0.017159274 0.0012325768 0.020571688 -0.08299426 -0.1502177 0.020817306 -0.100391075
0.04631036 -0.05572099 0.019435816 -0.04894646 0.00048648688 -0.07038849 0.09624001 -0.010575533
-0.0034483797 -0.076449074 -0.08785391 -0.13980615 0.04612942 -0.029550603 -0.010098345 0.07535476
0.040183503 0.092080094 0.006020567 0.0061419616 -0.04064035 0.10030785 -0.029745052 0.093929656
-0.09712126 -0.026505617 -0.010245609 0.013344459 -0.040671382 -0.008087788 -0.060896978 0.036384284
0.038498823 -0.12231761 -0.11232526 0.013315535 -0.043658864 -0.052471604 0.07582579 0.009935811
0.09673806 -0.1810067 -0.052516755 0.015418257 -0.04563752 -9.295286e-05 -0.054607283 0.019296907
0.07235856 0.016035281 0.011607424 -0.033311497 -0.0031582864 -0.06554572 -0.058477778 0.038667742
0.02127974 -0.04407084 -0.062211942 0.04771104 -0.092439614 0.11723912 -0.06022963 -0.06173414
0.066966 0.042268965 -0.033893246 0.012417122 0.017249078 0.045067944 0.20219147 -0.083432026
0.062328875 -0.04055796 0.15298888 -0.08707481 -0.116603225 0.08609455 -0.10346315 -0.09279682
-0.12026549 0.073248446 0.07547385 0.06532042 -0.08990341 0.15078636 -0.0036980347 0.023589885
00000000: b643 953d 60ef a73c ca2a c93c 4872 a8bc
00000010: 5764 b8bc d178 803d 2c64 be3d d136 353e
00000020: 16b5 a2bd 2d48 923d 938c c73d c129 7dba
00000030: 7357 e33c 4f5e 3f3c 7262 48bd 9201 c7bd
00000040: f27d ae3d 4488 1f3d 9f54 c4bc 09e5 ca3c
00000050: 4c48 f33d 5f27 01be 31c8 863d cdd1 153d
00000060: 13dd 81bd 421f 553d 2dc0 cd3b 4b6b dbbc
00000070: 9416 05bc ab2b 4dbd 6f72 d7bc c512 3abb
00000080: cda6 82bd 97fb e7bc f4be ac3c f963 23bd
00000090: 892a 0d3e ce5c 893a 9e8a ebbc e0a5 0f3c
000000a0: 3764 77ba 2b61 fc3c c55d 90bc e974 d93c
000000b0: 8817 5b3d 2eb5 7c3c 2bef 9dbd 3314 073a
000000c0: bae1 213d 6543 36bd 0f0c 103d 89b4 aebd
000000d0: 0ee4 883d b3f4 99bd 2501 123d e6d9 9d3d
000000e0: 0d77 52bd 4f5b 223b 59ac cebd a19d a3bc
000000f0: bcfe dbbc c469 84bd 7ea1 43bc 9776 87bd
00000100: 48ea b63d 1844 4a3c 7ba2 bbbd bd08 db3c
00000110: d20b 893d 00e2 e3bd 4e91 23be 36e9 853d
00000120: 8db1 cdbc 7f65 b73b 0edc dabd 5f09 20bb
00000130: 7167 df3c 0f55 ef3d 9739 4c3d 6c39 d03c
00000140: d558 453c 3b7b 23bd 2294 8c3c 6d80 4b3d
00000150: f72c 94bd ede8 5d3d b857 b739 4c54 9e3d
00000160: 3e69 d13d 2d26 6cbc 6a54 a73d 3971 62bb
00000170: a319 e5bd 440f 7e3d 2739 a63c 06f6 c13c
00000180: 60e8 83bd e663 f8bc c880 c7bd 9b4d 2b3d
00000190: 35da 6bbc a516 0fbd e6eb 3c3d 5372 653d
000001a0: b9cf d43d 41ad 493d 0f36 813d e68c 8b3c
000001b0: e167 3ebd 2352 00be 4f42 96bd 63e1 fabd
000001c0: c4fc 013d 0c76 2cbb dc85 dabc 2b79 37bc
000001d0: 6127 a2bd 9e65 de3c 20df 1cbd 29c2 a73b
000001e0: 9867 863d 3ddd 17bd 57a0 12bd bc24 90bc
000001f0: 3b08 9abd 7b9a bfbd aaee e03c 3358 1ebd
00000200: f7f1 173d 1cc3 e83c d11a 87bc c168 d33d
00000210: 98f3 fabd f0d2 ccbc 36aa 5a3c 2f96 273d
00000220: f3ba e8bd 305d 883d fbbf 483d 0daa 82bd
00000230: 6de9 08be 9b00 b63c 2118 843c 8fcc 623d
00000240: e3ca f4bd 79c7 9ebb ed12 21bd a42c 16bc
00000250: 8aea 2e3d 8cbe bb3d a112 453c ebed 343c
00000260: 4abc 223d 4ae1 ba3d 6a1e 3dbd fa29 ec3d
00000270: 4aa1 7abd 792a a23c 7d4f 93bc 839a 6b3d
00000280: d3ab 1d3d 9b91 8cbc 6a8e a13a f585 a83c
00000290: e5f8 a9bd abd2 19be 0e89 aa3c d699 cdbd
000002a0: efaf 3d3d b13b 64bd dc37 9f3c 157c 48bd
000002b0: 2a0f ff39 d727 90bd 7b19 c53d 0045 2dbc
000002c0: 36fe 61bb 5591 9cbd c0ec b3bd 5829 0fbe
000002d0: 34f2 3c3d 1b14 f2bc 8773 25bc 9953 9a3d
000002e0: 7597 243d 7d94 bc3d 2d48 c53b 8242 c93b
000002f0: 7f76 26bd 346e cd3d e5ab f3bc 315e c03d
00000300: 83e7 c6bd 4f22 d9bc 33dd 27bc b8a2 5a3c
00000310: 0997 26bd a482 04bc 1c6f 79bd b007 153d
00000320: f1b0 1d3d a881 fabd c90a e6bd 6729 5a3c
00000330: a3d3 32bd 77ec 56bd 8d4a 9b3d d0c9 223c
00000340: 9b1e c63d d259 39be cf1b 57bd db9c 7c3c
00000350: 68ee 3abd b0ef c2b8 e3ab 5fbd 8c14 9e3c
00000360: ba30 943d 6c5c 833c 112d 3e3c a371 08bd
00000370: 41fb 4ebb d63c 86bd 6586 6fbd 1162 1e3d
00000380: d952 ae3c a083 34bd f3d1 7ebd a76c 433d
00000390: fb50 bdbd 101b f03d 58b3 76bd f0dc 7cbd
000003a0: 7825 893d 3922 2d3d a5d3 0abd 2f71 4b3c
000003b0: f04d 8d3c 2a99 383d 480b 4f3e 69de aabd
000003c0: 904c 7f3d 1a20 26bd 1ea9 1c3e 4754 b2bd
000003d0: accd eebd 5752 b03d 7de4 d3bd 420c bebd
000003e0: c14d f6bd 4803 963d 0992 9a3d b6c6 853d
000003f0: 471f b8bd bd67 1a3e ba5a 72bb 933f c13c

bias f4 [12]
-0.028065965 -0.053412575 0.16930859 0.079877116 -0.03906177 0.11258984 -0.13285393 -0.012542877
-0.0022308866 0.17911173 -0.06549568 0.07821646
00000000: 98ea e5bc 25c7 5abd 3b5f 2d3e 9d96 a33d
00000010: 3cff 1fbd 8195 e63d dc0a 08be a480 4dbc
00000020: 1134 12bb 1169 373e 9922 86bd f42f a03d
