examples/locomotion/backflip/single.pt (torch, 799776 bytes, 8 tensors)

weight f4 [512, 60]
0	0xbe2c502a	-0.16827455
1	0x3c9921f9	0.018692957
2	0xbe08ac9e	-0.13347098
3	0xbbd3815c	-0.00645463
4	0xbe24dbfb	-0.16099541
5	0x3e1afe2a	0.15136018
6	0xbc814aad	-0.015782678
7	0x3d65b409	0.056079898
8	0x3d94c038	0.07263225
9	0x3e37a481	0.17933847
10	0x3dd96f5c	0.10616943
11	0x3b542de6	0.003237599
12	0x3dfb101e	0.122589335
13	0x3e07365f	0.13204335
14	0x3e9c1966	0.30488127
15	0xbda5fa0f	-0.081043355
16	0xbd897d50	-0.067133546
17	0x3e6f7561	0.2338462
18	0x3ddbff25	0.10742024
19	0x3e811a01	0.25215152
20	0x3d486f38	0.04893419
21	0x3cc867bf	0.024463532
22	0x3e4e0c73	0.20121937
23	0xbe7cfb4e	-0.2470524
24	0x3d012e14	0.031538084
25	0x3e31823d	0.17334838
26	0x3db1d70d	0.08683596
27	0x3e5a25ec	0.21303529
28	0xbdabf011	-0.083953984
29	0xbc870d7c	-0.016485922
30	0x3db3c1cc	0.08777198
31	0x3d4dac9a	0.050213434
32	0x3c19d61d	0.0093894275
33	0x3ded5891	0.11589158
34	0xbbfad00a	-0.0076541947
35	0x3b546df1	0.0032414163
36	0x3d3cc493	0.046085905
37	0xbc757581	-0.014981628
38	0xbc8e3f49	-0.017364161
39	0x3cc0ce42	0.023535851
40	0xbcc55651	-0.02408901
41	0xbd31f58f	-0.043447074
42	0x3cd899f1	0.026440592
43	0x3c2aee97	0.010432861
44	0xbc6bbb48	-0.014387913
45	0x3c3e7319	0.011624121
46	0x3c801962	0.015637103
47	0x3d8f5830	0.06999242
48	0x3d2db626	0.04241004
49	0xbd29e591	-0.041478697
50	0xbd9226b2	-0.07136287
51	0xbd4e174e	-0.050315194
52	0x3c9dc04a	0.01925673
53	0xbca30624	-0.019900389
54	0x3e1810af	0.14850114
55	0x3e560b46	0.20902738
56	0xbc795d42	-0.015219988
57	0x3c25ccc7	0.0101196235
58	0x3d08effc	0.033431992
59	0x3d6c0e96	0.057631098
60	0xbdeffda0	-0.11718297
61	0x3c9b1aff	0.018933771
62	0xbcbaada7	-0.022787882
63	0x3e670137	0.22559057
64	0x3ec96e74	0.39342082
65	0x3d2afb08	0.04174331
66	0xbe835338	-0.25649428
67	0x3e65b90d	0.22433873
68	0x3dfa3de0	0.12218833
69	0x3cd4a942	0.025959615
70	0xbed95eb3	-0.42455062
71	0xbebcabed	-0.3684992
72	0xbb2bda52	-0.0026222658
73	0x3e279c20	0.1636815
74	0xbd112ef4	-0.03544517
75	0xbe6e6c68	-0.23283541
76	0xbe0710d7	-0.13190018
77	0xbb0faef1	-0.0021924342
78	0xbd96c2fb	-0.07361408
79	0x3e4d5147	0.20050536
80	0x3e7842d3	0.24244241
81	0xbe02aa8a	-0.12760368
82	0xbe67e503	-0.22645955
83	0xbd9176c0	-0.07102728
84	0xbe96741a	-0.29385453
85	0x3d191b91	0.037379805
86	0x3e1fa181	0.15588953
87	0xbea4a930	-0.3216033
88	0x3dc12fa6	0.09432916
89	0x3d7823c0	0.06058097
90	0xbb80f1bf	-0.0039350684
91	0xbbc56dda	-0.006025058
92	0x3e02d084	0.12774855
93	0xbda59a2d	-0.08086047
94	0xbd39eb38	-0.045390338
95	0x3d0afe1e	0.03393375
96	0xbd29490f	-0.04132944
97	0xbd37bd04	-0.044857994
98	0x3b1ee2d7	0.0024244094
99	0xbcf1fd48	-0.02953972
100	0xbd8fa73e	-0.07014321
101	0x3d32e139	0.04367182
102	0xbb80181d	-0.0039091245
103	0x3d0a7c53	0.03380997
104	0x3ce11a6b	0.027478417
105	0x3c17847e	0.009247897
106	0xbca902e2	-0.020631257
107	0x3d426c11	0.04746634
108	0xbc526fb0	-0.012844011
109	0xbb2b4068	-0.0026130918
110	0x3c1ccfec	0.009571057
111	0x3c826a0c	0.015919708
112	0xbb455cc6	-0.0030115112
113	0xbcb49e4a	-0.022048134
114	0xbeffa5d7	-0.49931213
115	0x3e76181f	0.24032639
116	0xbe215e76	-0.1575869
117	0xbcc2e3b8	-0.023790225
118	0xbe5b45ff	-0.2141342
119	0x3e1f2f10	0.15545297
120	0xbde3ad0e	-0.11116992
121	0x3b3e2c3e	0.002901807
122	0xbeb6101d	-0.35559168
123	0xbe335729	-0.17513718
124	0x3ef5df7e	0.48022074
125	0xbe4f9a40	-0.20273685
126	0xbe90792d	-0.2821745
127	0x3e415087	0.18878375
128	0x3d609f1f	0.05483925
129	0xbdd8da17	-0.10588472
130	0x3cee7aaa	0.029111225
131	0xbcbbf212	-0.022942577
132	0x3e24400b	0.16040055
133	0x3d5535f5	0.05205341
134	0x3ef26324	0.47341263
135	0xbeb42e94	-0.35191786
136	0x3e9b3ca5	0.30319706
137	0x3df3da40	0.11906862
138	0xbe0d9c23	-0.13829093
139	0x3e335aa7	0.1751505
140	0xbe5f6a17	-0.21817814
141	0x3d0e1690	0.034689486
142	0x3be91554	0.007113138
143	0xbda2ab2d	-0.079428054
144	0x3e826606	0.25468463
145	0xbcc1cdde	-0.023657735
146	0x3e946e59	0.2899044
147	0xbddf0829	-0.10890228
148	0x3e266362	0.16248849
149	0x3db90c14	0.09035507
150	0x3bf4a530	0.007465981
151	0xbc08e055	-0.008354266
152	0xbdd4802b	-0.103760086
153	0xbda61335	-0.08109132
154	0xbae33817	-0.0017335442
155	0x3d004e38	0.031324595
156	0x3dc7ee02	0.09762193
157	0x3cd69b1d	0.02619701
158	0x3e087821	0.13327076
159	0xba981cf9	-0.0011605314
160	0x3c98818e	0.018616464
161	0x3c0d8212	0.008636968
162	0xbc2ad79e	-0.010427384
163	0xbc5d3557	-0.013501487
164	0x3d36512f	0.044511016
165	0x3c10ba5b	0.008833493
166	0x3b0c0f78	0.0021371525
167	0xbc18ef9b	-0.00933447
168	0x3bd40270	0.006470017
169	0x3b3fbabc	0.002925559
170	0x3d55e78e	0.05222278
171	0xbcac8a7d	-0.02106213
172	0xbd1d22bc	-0.038363203
173	0x3cc689de	0.024235662
174	0x3d953de8	0.07287198
175	0x3de51fdf	0.111877196
176	0x3d3fada5	0.04679646
177	0x3dd3f3d9	0.103492446
178	0x3df0637d	0.11737726
179	0x3d1fcfea	0.03901664
180	0x3dfab796	0.122420475
181	0x3e6418d2	0.22275093
182	0xbc5e0156	-0.013550123
183	0x3e8f90b9	0.28040102
184	0x3eb7b546	0.35880488
185	0x3e4c19fb	0.19931786
186	0xbd0623a6	-0.03274884
187	0x3e501d37	0.20323645
188	0x3d37dfe8	0.044891268
189	0x3d89a786	0.06721406
190	0x3e0346cd	0.12819977
191	0xbe5ebe34	-0.21752244
192	0xbde2bd8f	-0.11071312
193	0xbe29f205	-0.1659623
194	0xbd195f4a	-0.03744439
195	0x3e0016b9	0.12508668
196	0x3d9f2500	0.07770729
197	0xbe3fb7f0	-0.1872251
198	0xbd5611c0	-0.05226302
199	0x3dd56b9c	0.104209155
200	0x3e26e631	0.16298749
201	0x3d98fed7	0.07470482
202	0x3e5d17fe	0.21591184
203	0x3eb29c09	0.3488467
204	0xbd2dd03b	-0.042434912
205	0xbec265f3	-0.37968406
206	0x3d33094e	0.043710046
207	0xbdebdc45	-0.115166225
208	0xbddeaf08	-0.10873228
209	0xbe004814	-0.12527496
210	0x3bc52b9d	0.006017162
211	0x3dc09b17	0.09404581
212	0x3e173b14	0.1476863
213	0xbdaafc8d	-0.083489515
214	0x3d22ee8b	0.039778274
215	0x3d8c35a9	0.06846172
216	0xbd4bbfc6	-0.049743436
217	0xbcc1b674	-0.02364657
218	0xbc770d9f	-0.015078931
219	0xbb979b64	-0.0046266783
220	0x3c95215d	0.018204385
221	0x3cf4b782	0.02987266
222	0x3d073145	0.03300597
223	0x3dd5c672	0.10438241
224	0x3dd0614a	0.101748064
225	0xbd19eb2d	-0.037577797
226	0x3b14332f	0.0022613516
227	0xbd570a3a	-0.052499987
228	0xbbb7a6e3	-0.0056046112
229	0x3d26eaef	0.040751394
230	0xbda158fb	-0.078783
231	0x3bff3dd0	0.007789351
232	0xbd3ed476	-0.046589337
233	0xbd9b99a6	-0.075976655
234	0x3c4003f1	0.01171969
235	0xbe0e82f9	-0.1391715
236	0xbd970578	-0.0737409
237	0xbcf6da50	-0.030133396
238	0xbdca9408	-0.09891516
239	0xbd50ba6d	-0.05095904
240	0x3e59ed7c	0.21282
241	0xbcceb898	-0.025234506
242	0xbdd88268	-0.10571748
243	0xbe9644da	-0.29349405
244	0xbe6093f0	-0.21931434
245	0xbdff5f30	-0.124693274
246	0xbdc4ea4a	-0.096149996
247	0x3e04f3ac	0.12983578
248	0x3ca21bca	0.019788641
249	0xbe3e9b90	-0.1861403
250	0xbd06b1e4	-0.032884493
251	0x3dfdce89	0.12392909
252	0x3e1d02c3	0.15333085
253	0xbe9860d5	-0.29761377
254	0x3d7bb50d	0.06145196
255	0x3e120e5b	0.14263289

bias f4 [512]
0	0x3d211771	0.039328996
1	0xbd5165b4	-0.051122382
2	0xbcdd3bda	-0.027006079
3	0x3e08b5b5	0.13350566
4	0xbb47e186	-0.0030499413
5	0xbde928bc	-0.113847226
6	0xbd5222e9	-0.051302824
7	0xbdaf4e4a	-0.08559854
8	0x3e1e9a79	0.15488614
9	0xbe13bda1	-0.14427806
10	0xbcbf6c14	-0.023366965
11	0x3df70217	0.120609455
12	0xbcad3334	-0.02114258
13	0xbe12c4f8	-0.1433295
14	0xbd174113	-0.036927294
15	0x3e0a1a69	0.13486637
16	0x3d269638	0.040670604
17	0x3e62f9c8	0.22165596
18	0xbd8dbabc	-0.069203824
19	0x3d95eeb9	0.07320923
20	0xbd5214f3	-0.05128951
21	0xbd80e317	-0.06293314
22	0x3d999d0a	0.07500656
23	0x3d42047b	0.047367554
24	0xbd5c5efd	-0.053801525
25	0xbd85b4d4	-0.06528631
26	0xbe2276fc	-0.15865701
27	0xbc2fec35	-0.0107374685
28	0x3e1f4732	0.15554503
29	0xbdeca095	-0.11554066
30	0xbe12369f	-0.14278649
31	0xbe24a7d7	-0.16079651
32	0x3e068fe5	0.13140829
33	0xbe49d508	-0.19710171
34	0x3cb5b62f	0.022181598
35	0x3ab161d3	0.0013533182
36	0xbd7f15fd	-0.06227683
37	0x3e4a6fbf	0.1976919
38	0xbe80db62	-0.25167376
39	0xbcf7e794	-0.030261792
40	0xbdb216ba	-0.08695741
41	0xbe4a706f	-0.19769453
42	0x3cfd7801	0.030941011
43	0xbc9c13f9	-0.019052492
44	0xbe102775	-0.14077552
45	0xbe2afb96	-0.16697535
46	0xbd812f40	-0.0630784
47	0xbae2adcd	-0.0017294228
48	0x3d60b28f	0.054857787
49	0x3d9c2679	0.076245256
50	0xbe1f949e	-0.15584037
51	0x3dd94154	0.106081635
52	0xbe4edb2e	-0.20200798
53	0x3e4c09bb	0.19925587
54	0x3d0fe0a7	0.035126355
55	0x3c81d75e	0.015849765
56	0xbcc281e6	-0.023743581
57	0xbe50878b	-0.20364206
58	0x3d075da2	0.03304828
59	0xbddb11da	-0.10696764
60	0xbe2b4b24	-0.16727883
61	0x3d42f0e1	0.047593
62	0xbdfcc0a6	-0.12341432
63	0x3d255d75	0.04037233
64	0x3ca5fc47	0.020261897
65	0xbddd97f1	-0.10819996
66	0xbe39495b	-0.18094389
67	0x3bd51bce	0.0065035587
68	0x3dc2335e	0.09482454
69	0x3e546d08	0.20744717
70	0xbd216bf4	-0.039409593
71	0x3dab9798	0.083785236
72	0xbc909bc5	-0.017652402
73	0x3c30c622	0.010789426
74	0x3cc2774b	0.023738524
75	0xba9a1071	-0.0011754167
76	0x3e2b48b1	0.16726948
77	0x3dcb247c	0.09919068
78	0x3e0b0b13	0.13578443
79	0x3cf93134	0.03041897
80	0xbc4b8b40	-0.0124233365
81	0xbe803010	-0.2503667
82	0x3e476020	0.19470263
83	0xbc6a9442	-0.014317574
84	0xbd8ef559	-0.0698039
85	0x3ddd621a	0.10809727
86	0x3e009492	0.12556675
87	0x3cbf70a2	0.023369137
88	0x3d81c23b	0.06335875
89	0x3d9d047c	0.07666871
90	0xbd37092e	-0.04468649
91	0x3e026eeb	0.12737624
92	0x3e2a9d69	0.1666161
93	0x3e0cde8c	0.1375677
94	0xbe26685d	-0.16250749
95	0xbc986ecf	-0.018607525
96	0x3e362c23	0.17790274
97	0x3dc152c0	0.094396114
98	0xbd2410ae	-0.04005497
99	0xbdd17076	-0.10226528
100	0x3cbd37df	0.02309793
101	0x3de4ede0	0.111781836
102	0xbd9a440f	-0.075325124
103	0xbe147881	-0.14499094
104	0x3dc1c5ef	0.09461581
105	0x3d430867	0.047615435
106	0xbd3d48d1	-0.04621202
107	0xbc8e338d	-0.017358566
108	0xbd21b4ec	-0.03947918
109	0xbe08ca88	-0.1335851
110	0x3da1bfe9	0.07897932
111	0xbd5bb6e5	-0.05364122
112	0x3c71e4b9	0.014764004
113	0xbe341ce5	-0.17589147
114	0xbe14026b	-0.14454047
115	0xbcefa904	-0.029255398
116	0xbd12dca3	-0.035854947
117	0x3dfa6c7a	0.122277215
118	0xbcef7738	-0.029231653
119	0xbdbd3f4f	-0.09240591
120	0x3e1b2a67	0.15152894
121	0x3dcaf03e	0.09909104
122	0xbdea90ec	-0.11453423
123	0xbdd82223	-0.10553386
124	0x3e3f0a4a	0.18656269
125	0xbd6e8e35	-0.058241088
126	0xbdaf5f9b	-0.08563157
127	0x3db26b52	0.08711876
128	0xbd967b9c	-0.07347795
129	0xbd40b985	-0.047051925
130	0x3afdb7e2	0.001935717
131	0xbc65da92	-0.014029162
132	0xbd3f490d	-0.046700526
133	0xbdd77d95	-0.10522
134	0x3c06b24c	0.00822122
135	0xbdf59562	-0.11991383
136	0xbe236386	-0.15955934
137	0xbd68f781	-0.056876663
138	0xbcfcb173	-0.030846333
139	0x3bc48194	0.005996892
140	0xbd2ce730	-0.042212665
141	0xbdd55f3b	-0.104185544
142	0xbe0af900	-0.13571548
143	0x3d84a48f	0.064766996
144	0xbdb2d396	-0.08731763
145	0xbda73756	-0.08164851
146	0xbc558686	-0.013032561
147	0x3d27f552	0.04100544
148	0x3ddc2c22	0.10750605
149	0xbd9159fa	-0.0709724
150	0xbd850101	-0.06494332
151	0x3e4b8ca5	0.1987787
152	0x3dbaaadc	0.0911462
153	0xbc27e21f	-0.010246783
154	0xbcbeeb30	-0.023305506
155	0x3d30b248	0.043138772
156	0xbd64a1d6	-0.0558184
157	0x3e056bb9	0.13029374
158	0x3e053919	0.13010062
159	0x3d976055	0.07391421
160	0xbd95b7f9	-0.073104806
161	0x3d2aa5e5	0.041662116
162	0x3da216a3	0.07914474
163	0x3d76a272	0.060213514
164	0xbe047d71	-0.12938477
165	0x3d94d015	0.07266251
166	0xbde6a9f1	-0.112628825
167	0x3e029cb5	0.12755091
168	0x3c52b690	0.012860909
169	0x3ccd4624	0.02505786
170	0x3dfc9fd3	0.123351716
171	0xbb97eb64	-0.004636215
172	0xbdbbd76d	-0.091719486
173	0x3d092471	0.03348202
174	0xbdb981fa	-0.09057994
175	0xbe0d7cbe	-0.13817117
176	0x3d0c4d59	0.034253452
177	0x3d262cf9	0.040570233
178	0x3d28c9d1	0.041208092
179	0x3cdd365b	0.027003458
180	0x3d4ce454	0.05002244
181	0x3e0a925e	0.13532397
182	0x3d08c0a6	0.03338685
183	0xbda54bfd	-0.08071134
184	0xbc6b3c72	-0.014357673
185	0xbe13f9be	-0.14450738
186	0xbe01bf9e	-0.12670752
187	0xbc0b5886	-0.008504992
188	0x3e2e4a86	0.17020616
189	0xbe4233b7	-0.1896504
190	0x3e28c09f	0.16479729
191	0x3cad31d8	0.021141931
192	0xbd28ba10	-0.041193068
193	0x3e033e3b	0.12816708
194	0xbda5fd51	-0.08104957
195	0x3de22dce	0.11043893
196	0xb9ac278b	-0.00032835858
197	0x3a927947	0.001117506
198	0xbe36dd8e	-0.17857954
199	0xbe27279f	-0.16323708
200	0xbdd4f16b	-0.10397609
201	0xbd336330	-0.043795764
202	0x3e274120	0.16333437
203	0xbe6af9f4	-0.22946912
204	0xbd8c822b	-0.06860765
205	0xbdd089c5	-0.101825275
206	0x3e23bf6f	0.15990995
207	0x3d23955f	0.039937373
208	0xbda91aab	-0.0825704
209	0x3d2023da	0.03909669
210	0x3d9f703b	0.07785078
211	0xbd90bda0	-0.07067418
212	0x3db23b5b	0.087027274
213	0xbe286098	-0.16443098
214	0xbe02dd8e	-0.12779829
215	0x3d021a59	0.03176341
216	0xbda13386	-0.078711554
217	0xbde5952f	-0.11210095
218	0x3d87fcd5	0.06640021
219	0x3dd063bb	0.10175272
220	0x3dba975d	0.091109015
221	0xbe04a107	-0.12952052
222	0x3e0f30b9	0.1398343
223	0x3cf42127	0.029800965
224	0x3d457987	0.0482116
225	0xbdf4a952	-0.11946358
226	0x3c1cf918	0.009580873
227	0x3db58526	0.08863287
228	0x3db7f0dc	0.08981487
229	0xbcccb58f	-0.024988918
230	0xbe4693d1	-0.19392325
231	0xbe032cec	-0.12810105
232	0x3d26af29	0.04069439
233	0xbd378d1b	-0.044812303
234	0xbe1f6d6e	-0.15569088
235	0xbd31b748	-0.04338768
236	0x3dad0c9c	0.08449671
237	0xbd9e325a	-0.077244475
238	0x3dc7812a	0.09741433
239	0xbd9c50c5	-0.07632593
240	0x3e5d3ccf	0.21605228
241	0xbde0331d	-0.10947249
242	0xbc03f8d1	-0.008054928
243	0x3d604f96	0.0547634
244	0xbd8a1850	-0.067429185
245	0x3e4e1fd2	0.20129326
246	0x3dda0664	0.1064575
247	0xbdc6ff79	-0.09716696
248	0x3ca2bdc5	0.01986588
249	0xbd56a545	-0.052403707
250	0x3a7b3c36	0.0009583862
251	0xbe08aafb	-0.13346474
252	0x3e365516	0.17805895
253	0x3dbde599	0.09272308
254	0x3da6ff2a	0.081541374
255	0xbdf4d169	-0.11954004

weight f4 [256, 512]
0	0x3c23a81c	0.009988811
1	0xbd52dc8a	-0.051479854
2	0x3d90d0dd	0.070710875
3	0xbca65602	-0.020304684
4	0x3cb99f11	0.022658857
5	0x3d05c884	0.03266193
6	0xbdac90a2	-0.08426024
7	0xbd80e0be	-0.06292866
8	0x3d903c03	0.07042696
9	0xbd4af3ab	-0.049548786
10	0x3d3f9073	0.046768617
11	0x3d07f2fa	0.033190705
12	0xbd50723e	-0.0508902
13	0x3da19fa8	0.0789178
14	0x3cd16d78	0.025564894
15	0x3d999575	0.0749921
16	0x3ce7ebf2	0.02831075
17	0xb8c35460	-9.314041e-05
18	0x3c67a459	0.014138305
19	0xbd63fa41	-0.055658583
20	0xbd4b9a79	-0.049707863
21	0xbe03be46	-0.12865552
22	0x3d8514e4	0.06498125
23	0x3bfc2807	0.0076952013
24	0xbcabc2e6	-0.020966958
25	0x3d063f95	0.03277548
26	0x3de35a36	0.11101191
27	0xbd096763	-0.033545863
28	0xb7342f7a	-1.073989e-05
29	0xbd4c6b7d	-0.049907196
30	0xbc997e1b	-0.01873689
31	0xbd7e60bf	-0.062103983
32	0xbc76a7c3	-0.015054646
33	0x3db5aa42	0.08870365
34	0xbce5d797	-0.028056903
35	0x3d15f131	0.03660697
36	0xbc4a2b6a	-0.012339452
37	0xbce06a5f	-0.027394472
38	0x3d08075b	0.03321014
39	0xbcf3f2de	-0.029778894
40	0x3d88012d	0.06640849
41	0xbdc13526	-0.094339654
42	0x3ce731a6	0.028221916
43	0xbdbe425b	-0.0929
44	0x3d73fe92	0.05956895
45	0x3db7a83f	0.08967637
46	0xbd0fd8ff	-0.035119053
47	0x3cd64538	0.026156053
48	0x3ce9967e	0.028514143
49	0x3bc72309	0.0060771746
50	0xbd930212	-0.07178129
51	0xbd6de4e5	-0.05807962
52	0xbd20073d	-0.039069403
53	0xbca7986e	-0.020458426
54	0xbaa759b9	-0.0012767828
55	0xbd88fef1	-0.06689251
56	0x3b3b53eb	0.0028583955
57	0xbdfdece3	-0.12398698
58	0x3d95be25	0.07311658
59	0x3ca07979	0.019589173
60	0x3d50ca78	0.05097434
61	0x3d36cb2c	0.044627354
62	0x3c986f00	0.018607616
63	0xbd7a3e5f	-0.061094638
64	0x3c9bc3d6	0.01901428
65	0x3d86f979	0.06590552
66	0x3dd804e2	0.10547806
67	0x3d86e5c6	0.065867946
68	0x3ccc6dc3	0.024954682
69	0x3ddf53dc	0.10904667
70	0xbc12a39a	-0.008950138
71	0x3c524545	0.012833898
72	0xbce15ea9	-0.027510958
73	0xbd517bab	-0.05114333
74	0x3da3bda9	0.07995159
75	0x3d8abca3	0.06774261
76	0x3d0f9bf4	0.035060838
77	0xbcaf60a5	-0.021408388
78	0x3cbfd28f	0.023415832
79	0xbb7390b1	-0.00371651
80	0xbdc8aee4	-0.09798983
81	0xbd1b3129	-0.03788868
82	0x3d3103de	0.04321658
83	0x3d5464e9	0.051854048
84	0xbd901d54	-0.07036844
85	0x3cddaccc	0.027059935
86	0xbc7a4932	-0.01527624
87	0xbcd82895	-0.026386539
88	0x3de5fa36	0.112293646
89	0xbd15e22a	-0.03659264
90	0x3d2a26a9	0.041540775
91	0x3cc92980	0.024555922
92	0x3bfd751e	0.0077349087
93	0x3d43b687	0.047781494
94	0x3d885d59	0.0665843
95	0x3d60fbdd	0.054927696
96	0x3d597ae4	0.053095713
97	0xbcb4c303	-0.022065645
98	0xbe01f3b2	-0.12690619
99	0xbc81aac3	-0.015828496
100	0xbcbe0034	-0.023193456
101	0x3d974487	0.073861174
102	0x3c442cfb	0.011973615
103	0x3c7c62ca	0.0154044125
104	0x3d6a6ea8	0.057234436
105	0x3d06ab31	0.032878105
106	0x3dfc1399	0.123084255
107	0x3cf87c76	0.030332785
108	0xbc8b58cd	-0.017010117
109	0x3c8c6ea4	0.017142601
110	0x3c711b50	0.014715984
111	0xbd54398f	-0.051812705
112	0xbcd1b81a	-0.025600482
113	0xbc635bf7	-0.013876907
114	0x3d43d6c3	0.047812235
115	0xbda60914	-0.081072
116	0x3d026df2	0.031843133
117	0x3c43cbf1	0.011950479
118	0xbd9575f8	-0.072978914
119	0x3d4bc193	0.049745154
120	0x3d4e9e8a	0.050444163
121	0xbd4623af	-0.048373874
122	0xbd823065	-0.06356887
123	0xbd9a5884	-0.07536414
124	0x3ca49256	0.02008931
125	0x3d7faece	0.062422566
126	0x3d63df29	0.055632744
127	0x3d84dbff	0.064872734
128	0x3bac58d6	0.0052596135
129	0xbdee7446	-0.11643271
130	0xbd55d15c	-0.052201614
131	0x3d4f1955	0.050561268
132	0xbcf47308	-0.029840007
133	0xbd222f2a	-0.03959576
134	0xbbaf6cd8	-0.0053535514
135	0xbda7cf35	-0.081938185
136	0x3dce87ce	0.100844964
137	0xbb6ac2f7	-0.0035821775
138	0x3e02134f	0.12702678
139	0x3ce84887	0.028354896
140	0xbd7037a9	-0.05864683
141	0x3c4c6c9d	0.012477067
142	0xbd4e9b75	-0.050441224
143	0x3d9178f6	0.071031496
144	0x3d37e98c	0.044900462
145	0x3cdca0b5	0.0269321
146	0xbd4631e6	-0.04838743
147	0x3be2e821	0.0069246446
148	0xbc0adfaf	-0.008476182
149	0xbd754970	-0.05988449
150	0x3d114e3a	0.035474993
151	0x3c71d78e	0.014760865
152	0xbc691a61	-0.014227481
153	0xbd1c5d05	-0.038174648
154	0xbb9e7dd5	-0.0048367777
155	0x3b98715c	0.0046521854
156	0x3d924fed	0.07144151
157	0x3d0a10fa	0.033707596
158	0x3c0a660a	0.00844718
159	0xbda3a03c	-0.07989547
160	0x3d167a98	0.03673801
161	0xbd18b399	-0.037280653
162	0x3e11e6cc	0.14248198
163	0x3d381887	0.044945266
164	0x3d80798d	0.06273184
165	0x3d56f57f	0.052480217
166	0xbd54c952	-0.051949807
167	0x3d32cb5b	0.043650966
168	0xbdbbf37e	-0.09177302
169	0xbd4ea51d	-0.050450433
170	0xbd9cee10	-0.07662594
171	0xbc2bdbbf	-0.010489403
172	0x3cdf8a2f	0.02728757
173	0xbd46a0f1	-0.04849333
174	0xbd267f7e	-0.04064893
175	0x3d965132	0.073397055
176	0x3ddd9649	0.1081968
177	0x3c78d28d	0.015186918
178	0x3dac109d	0.08401606
179	0x3d1c953b	0.038228255
180	0xba2e3133	-0.00066449045
181	0x3dbb0549	0.091318674
182	0xbc89f4b7	-0.016840322
183	0x3ba2a3b0	0.0049633607
184	0x3d1242d7	0.035708275
185	0x3d62d93c	0.055382952
186	0xbca1d14e	-0.019753125
187	0xbda9ee80	-0.082974434
188	0xbdb2a03b	-0.08721968
189	0xbd41414f	-0.047181424
190	0x3d7484b9	0.059696887
191	0xbd3488e0	-0.044075847
192	0x3d01f298	0.031725496
193	0x3d7f2cb9	0.06229851
194	0x3d18f087	0.03733876
195	0x3d4a1898	0.04933986
196	0xbb98ed08	-0.004666928
197	0x3e32d971	0.1746576
198	0x3d28075a	0.041022636
199	0x3d51aceb	0.051190298
200	0xbdeaaac7	-0.114583544
201	0xbdba5a52	-0.090992585
202	0x3d204fda	0.039138652
203	0xbd269091	-0.040665213
204	0x3daaa8a6	0.083329484
205	0xbdaa6d97	-0.08321684
206	0x3cffa269	0.031205373
207	0x3c8f0b03	0.017461305
208	0x3d95e179	0.07318396
209	0xbd76397d	-0.06011342
210	0x3c9d4fbe	0.019203063
211	0x3d201744	0.039084688
212	0xbd877e19	-0.06615848
213	0x3d5be4ff	0.053685185
214	0xbd104d3d	-0.03522991
215	0x3d2160b6	0.03939887
216	0x3d48ff9e	0.0490719
217	0x3da0decb	0.078549944
218	0x3d575619	0.052572343
219	0x3d4dd6f4	0.050253823
220	0xbd924898	-0.071427524
221	0xbca9b893	-0.020717895
222	0xbda6de46	-0.08147864
223	0x3d460471	0.04834408
224	0xbcd8347b	-0.026392212
225	0x39098c94	0.00013117708
226	0xbd30f647	-0.04320362
227	0xbd4c64c8	-0.0499008
228	0xbd8e57e2	-0.06950356
229	0x3d4aa1ba	0.04947064
230	0x3c2bdb3e	0.010489283
231	0xbd2fad15	-0.042889673
232	0x3d2685ef	0.040655073
233	0x3c300dba	0.01074546
234	0xbe0e6dd1	-0.13909079
235	0x3dea2e1b	0.11434575
236	0xb959fcf6	-0.00020788968
237	0x3d2c564c	0.042074487
238	0xbdcbde9e	-0.0995457
239	0x3d39dae4	0.045374766
240	0xba8ddf17	-0.0010823932
241	0xbe001563	-0.12508158
242	0xbc227150	-0.009914711
243	0xbd5d3c55	-0.054012615
244	0x3cb22ad9	0.021748947
245	0x3dbbcce2	0.09169938
246	0x3d1e13fb	0.038593274
247	0xbdccdd0c	-0.10003099
248	0xbd4a6169	-0.049409304
249	0xbb7371ac	-0.003714661
250	0x3dcaa639	0.09894986
251	0xbc3e0359	-0.011597478
252	0xbc0af274	-0.008480657
253	0x3d62a083	0.055328857
254	0x3d7719cf	0.060327347
255	0xbbc9864a	-0.0061500417

bias f4 [256]
0	0xbb86949b	-0.0041070706
1	0x3d31e443	0.043430578
2	0xbd406d66	-0.04697933
3	0xbb67f7ab	-0.0035395424
4	0x3d1e74e2	0.038685687
5	0xbbe95434	-0.0071206335
6	0x3c8894f3	0.016672587
7	0x3cb20807	0.021732343
8	0x3c29e85f	0.010370343
9	0xbc0355f5	-0.008016099
10	0xbb8ef9d7	-0.0043632793
11	0x3bc5d69a	0.0060375454
12	0xbdcc3a5a	-0.09972067
13	0xbca09342	-0.019601468
14	0xbb092160	-0.0020924434
15	0x3aa04060	0.0012226216
16	0xbe164b2b	-0.14677112
17	0xbd89bcb0	-0.067254424
18	0xbd0707c2	-0.032966383
19	0x3bf76ec1	0.0075510447
20	0xbc6e458a	-0.014542947
21	0xbc81a8fb	-0.015827646
22	0xbc85fa0d	-0.016354585
23	0x3b2bb7af	0.0026202013
24	0xbd0e031d	-0.034670938
25	0xbd4afcf4	-0.04955764
26	0xbce4ef18	-0.02794604
27	0xbd034464	-0.032047644
28	0xbe2f3aa6	-0.17112216
29	0x3d131104	0.0359049
30	0xbcfffa17	-0.031247182
31	0xbd798175	-0.060914475
32	0xbe11965b	-0.14217512
33	0xbda55d67	-0.08074456
34	0x3c91f8ad	0.017818773
35	0x3b821eef	0.0039709727
36	0x3ccefdae	0.025267448
37	0xbd5a9ed2	-0.05337412
38	0xbcfefc7c	-0.031126253
39	0xbd0b6d43	-0.034039747
40	0xbcfe5985	-0.031048546
41	0xbd3594ce	-0.044331364
42	0xbcde270e	-0.027118232
43	0xbccb549e	-0.024820622
44	0x3c7a175a	0.0152643565
45	0xbc78c945	-0.015184705
46	0xbcfcba89	-0.030850666
47	0xbd299c19	-0.041408632
48	0xbd5ccfa8	-0.053908974
49	0xbd75f09e	-0.060043924
50	0x3c18a3b3	0.009316373
51	0xbbbd35a8	-0.0057742186
52	0xbd8d3664	-0.0689514
53	0xbdbde5ab	-0.09272321
54	0x3c076e7f	0.00826609
55	0x3c52cb1b	0.012865807
56	0xbd089340	-0.033343554
57	0xbd716b94	-0.058940485
58	0xbd880dd6	-0.06643264
59	0x3d45a2a9	0.048250828
60	0xbde696ca	-0.112592295
61	0xbd99d1ce	-0.0751072
62	0xbd790a50	-0.06080085
63	0x3b8316bc	0.004000513
64	0xbd2bf316	-0.04197987
65	0xbd42cf13	-0.047560763
66	0xbc8d2492	-0.017229352
67	0xbda5bf33	-0.08093109
68	0xbe0574cc	-0.13032836
69	0xbbf5c910	-0.007500775
70	0xbd961ce2	-0.07329728
71	0x3d1965bf	0.03745055
72	0xbda80291	-0.082036145
73	0xbd047e74	-0.032347158
74	0x3bc1fb4a	0.0059198486
75	0xbb992fb9	-0.0046748784
76	0xbb857441	-0.0040726964
77	0xbd4f9b50	-0.050685227
78	0xbd35aaf2	-0.04435248
79	0x3d333beb	0.043758314
80	0x3cb57a9c	0.022153191
81	0xbc779d02	-0.015113117
82	0xbd88f911	-0.06688131
83	0xbc8f292e	-0.01747569
84	0xbd02cdee	-0.03193467
85	0x3d0c645f	0.03427541
86	0xbb91d6ec	-0.0044506695
87	0xbd0e6e9b	-0.03477345
88	0xbd787ef0	-0.060667932
89	0x3cf82c26	0.03029449
90	0xbd363bde	-0.044490688
91	0x3b98ce2c	0.0046632495
92	0xbd64d352	-0.055865593
93	0xbca674eb	-0.020319423
94	0x3c28ac4a	0.010294983
95	0xbd15797f	-0.03649282
96	0xbc3884b8	-0.011262111
97	0xbdde0a46	-0.10841803
98	0x3ce70b14	0.028203525
99	0x3cb69c97	0.022291465
100	0xbd858e21	-0.065212496
101	0xbd8e6e22	-0.069546
102	0xbc0cedd8	-0.008601628
103	0xbcf82753	-0.030292189
104	0x3c1ce8a0	0.0095769465
105	0x3d0dbb9a	0.03460274
106	0x3d052ca1	0.032513265
107	0x3cb49593	0.022043979
108	0x3c0228ba	0.00794428
109	0x3c780366	0.015137529
110	0xbdcee573	-0.10102358
111	0xb7e263ea	-2.6987826e-05
112	0x3cb5cac1	0.022191407
113	0x3da270de	0.07931684
114	0xbcac75e2	-0.021052305
115	0xbe27626c	-0.16346139
116	0xbd893e7a	-0.067013696
117	0xbd137218	-0.03599748
118	0xbc94f5f5	-0.018183688
119	0x3d80b6fe	0.06284903
120	0x3af5c540	0.0018750802
121	0xbcf04f8a	-0.029334802
122	0xbc88f698	-0.016719148
123	0xbd779825	-0.06044783
124	0x3d7cba35	0.06170102
125	0xbd538235	-0.051637847
126	0xbd8a98bb	-0.06767412
127	0xbc5e5999	-0.013571166
128	0xbd3c029b	-0.045900922
129	0x3ce2d0b9	0.027687417
130	0xbd1c310f	-0.038132723
131	0xbcce3061	-0.025169553
132	0xbb2a063f	-0.0025943664
133	0xbdf742a6	-0.12073259
134	0xbc9a18ed	-0.018810714
135	0xbd8292ea	-0.06375678
136	0xbc07c04d	-0.008285594
137	0xb9edaae8	-0.00045331498
138	0x3d588fa6	0.05287137
139	0xbdbdf750	-0.09275687
140	0x3c5d430b	0.013504754
141	0x3d1143de	0.035465114
142	0xbd24827b	-0.0401635
143	0xbccbf3db	-0.024896553
144	0x3be81ee0	0.0070837587
145	0xbc45a4f9	-0.012063258
146	0x3ca58100	0.020203114
147	0xbced7c98	-0.028990075
148	0xbdbc0e41	-0.09182406
149	0xbd3c16ef	-0.04592031
150	0xbcad1b1b	-0.021131089
151	0xbc68e5da	-0.014214957
152	0xbc724178	-0.014786117
153	0x3d394ab1	0.045237247
154	0xbb5af7e7	-0.0033411921
155	0xbcf38ddd	-0.029730732
156	0x3bc72dcc	0.0060784575
157	0xbbd33856	-0.0064459248
158	0xbca8ece3	-0.020620769
159	0x3b2f9ac7	0.0026795135
160	0xbcf1db15	-0.029523412
161	0xbccf29ea	-0.02528854
162	0xbd4d7ba7	-0.050166752
163	0x3ba162f5	0.0049251267
164	0xbce06e67	-0.027396394
165	0xbd54b4ec	-0.051930353
166	0xbcefa304	-0.029252537
167	0xbde178d3	-0.110093735
168	0xbd926fc8	-0.07150227
169	0xbd228a5f	-0.039682742
170	0xbced769d	-0.028987223
171	0xbd88ddb5	-0.06682912
172	0x3b9103d0	0.0044255033
173	0xbe04a818	-0.12954748
174	0xbd7b46b3	-0.06134672
175	0x3c1e8208	0.009674557
176	0xbb4428e4	-0.00299316
177	0x3c7abfe2	0.0153045375
178	0xbc866f12	-0.016410384
179	0x3bbd4731	0.005776309
180	0xbc39c046	-0.0113373455
181	0x3c7aadda	0.0153002385
182	0xbdc08d47	-0.094019465
183	0x3ca5e97e	0.02025294
184	0x3c35ac59	0.011088454
185	0xbd7aa985	-0.061196823
186	0x3c80f73f	0.015742896
187	0xbd15a4e9	-0.036534224
188	0x3c1fcea2	0.009753855
189	0x3ba074a7	0.0048967185
190	0xbdb3b3bb	-0.08774515
191	0xbd8486ff	-0.06471061
192	0xbbdeaf89	-0.0067958278
193	0x3cd9ba89	0.026578205
194	0xbd285886	-0.041100048
195	0xbd4caba0	-0.04996836
196	0xbd3b4357	-0.045718517
197	0x3cca0f02	0.02466536
198	0xbc14737a	-0.009060735
199	0x3cc17bdf	0.023618637
200	0xbdf0d536	-0.11759417
201	0xbd50be9b	-0.050963026
202	0xbd791191	-0.06080777
203	0x3c33c6fa	0.010972733
204	0xbd588c93	-0.052868437
205	0x3cb2c136	0.021820646
206	0x3c294208	0.0103306845
207	0xbb99d28f	-0.00469429
208	0xbd7e8ce3	-0.06214608
209	0xbd09bd2d	-0.033627678
210	0xbdb364f3	-0.08759489
211	0xbd435407	-0.047687557
212	0xbd13f9da	-0.03612695
213	0x3b90540c	0.0044045504
214	0xbcb16e69	-0.021659093
215	0x3b752aea	0.0037409612
216	0x388fbf53	6.854408e-05
217	0xbd46a01d	-0.04849254
218	0xbc3e6ad0	-0.011622146
219	0x3b87d2a5	0.004144984
220	0x3cb669ce	0.022267248
221	0x3cb93e7e	0.022612806
222	0xbda2e917	-0.079546146
223	0xb930e63a	-0.00016870434
224	0x3ceccc84	0.028906114
225	0xbd510017	-0.051025476
226	0xbd785281	-0.060625557
227	0xbd368fee	-0.044570856
228	0x3d28bfe7	0.041198637
229	0xbca3327a	-0.01992153
230	0xbd7d2b47	-0.06180885
231	0xbd2b3a62	-0.041803725
232	0xbd487668	-0.048941046
233	0xbc2b045b	-0.01043805
234	0xbc6027e8	-0.013681389
235	0x3ce31166	0.027718257
236	0xbdb78d8d	-0.089625455
237	0xbda71e34	-0.08160058
238	0xbda4810a	-0.08032425
239	0x3d026fb7	0.03184482
240	0xbe1a150e	-0.15047094
241	0x3d17f014	0.03709419
242	0xbd3b0792	-0.045661516
243	0x3d7689b3	0.060189914
244	0x3cf4589e	0.029827412
245	0xbd8931a6	-0.06698923
246	0xbcf5fed3	-0.030028736
247	0xbd875926	-0.066088006
248	0xbd0e75f4	-0.034780458
249	0x3c9f6e5d	0.019461805
250	0xbc5d7e68	-0.013518907
251	0x3d2d51d2	0.042314358
252	0xbd7c364b	-0.061575215
253	0xbc671840	-0.014104903
254	0xbd66dd4e	-0.056363396
255	0xbc0ca326	-0.0085838195

weight f4 [128, 256]
0	0x3d40dbac	0.047084495
1	0xbd03f814	-0.032219008
2	0x3c838dc5	0.016058812
3	0x3d3ad439	0.045612548
4	0xbd5619ae	-0.052270584
5	0x3d23e477	0.040012803
6	0x3cbdb0fa	0.023155678
7	0x3d2d0c81	0.042248253
8	0xbda95895	-0.08268849
9	0x3d163338	0.03666994
10	0xbd3c2228	-0.04593101
11	0xbcf83f2a	-0.030303556
12	0x3e2add51	0.16685988
13	0x3e43745c	0.19087356
14	0x3d15465a	0.036444046
15	0x3d538505	0.05164053
16	0xbd8d7cee	-0.06908594
17	0xbd109606	-0.035299323
18	0xbca2e187	-0.01988293
19	0xbdc6801d	-0.096924044
20	0x3d5425f1	0.051793996
21	0xbdea2f19	-0.114347644
22	0xbcf6e8b8	-0.030140266
23	0xbcb88071	-0.022522183
24	0x3d032463	0.032017123
25	0x3d8fbbaf	0.0701822
26	0xbcee1baa	-0.029065926
27	0xbdd768d5	-0.10518042
28	0x3cac133d	0.021005267
29	0x3cfb5ac8	0.030682936
30	0xbd0c9025	-0.034317154
31	0xbdd7fff1	-0.10546864
32	0xbbe3c76b	-0.0069512627
33	0xbc359b54	-0.011084396
34	0x3d3f5310	0.046710074
35	0xbda9d756	-0.08293025
36	0xbde90320	-0.11377549
37	0x3d8555f9	0.065105386
38	0xbdd4217b	-0.103579484
39	0x3df92ceb	0.121667705
40	0x3c6a704c	0.014309
41	0x3d3003b3	0.042972278
42	0x3d433a0d	0.047662783
43	0xbd250abe	-0.040293448
44	0x3c2f0b9f	0.010683923
45	0xbdefe76e	-0.117140636
46	0x3d3deff8	0.04637143
47	0xbda5abb3	-0.0808939
48	0xbc8fe6a4	-0.017566033
49	0xbddeae60	-0.10873103
50	0x3dc19f23	0.09454181
51	0x3ccfcfa3	0.025367564
52	0xbe507dad	-0.20360442
53	0x3c923de7	0.017851783
54	0xbdc78292	-0.09741701
55	0xbe23691d	-0.15958066
56	0xbdf62413	-0.12018599
57	0xbc6eea8e	-0.014582289
58	0x3d9899fb	0.074512444
59	0xba298329	-0.0006466383
60	0xbd004c5b	-0.03132282
61	0x3b361b91	0.0027787427
62	0xbd19771d	-0.03746711
63	0x396d1adc	0.00022612087
64	0x3bf376f8	0.0074299537
65	0xbd66e9ff	-0.0563755
66	0xbd34cb7c	-0.04413937
67	0x3b18b33a	0.0023300187
68	0x3cf847f4	0.030307747
69	0xbdadbbdb	-0.08483096
70	0x3ae0e836	0.0017159048
71	0xbb6c4d69	-0.0036056882
72	0x3d4047d4	0.0469435
73	0xbbb232c6	-0.0054381816
74	0xbce99e9e	-0.028518017
75	0x3dc45ad5	0.09587637
76	0x3c3a2e2b	0.011363546
77	0xbd24b4f6	-0.04021164
78	0x3d9de38c	0.07709417
79	0xbb139c7c	-0.0022523692
80	0xbd83e05b	-0.06439277
81	0x3cc345e7	0.023837043
82	0x3cd0509a	0.025429059
83	0x3c158ab7	0.0091273105
84	0x3c240a48	0.010012217
85	0xbb653843	-0.0034976162
86	0x3e01c45c	0.12672561
87	0xbc9aec83	-0.018911606
88	0xbdcd55d2	-0.100261346
89	0xbd9fca6b	-0.0780228
90	0x3ca42fe0	0.02004236
91	0x3a39ca8e	0.0007087373
92	0x3c1c449f	0.009537845
93	0xbd07516a	-0.033036627
94	0xbc7bd155	-0.015369733
95	0xbd3b1f6b	-0.04568426
96	0x3d889547	0.066690974
97	0x3deadf37	0.11468356
98	0xbd1ec7ef	-0.03876489
99	0xba24c1cf	-0.0006284983
100	0x3ce51ff4	0.027969338
101	0x3c9bfc3f	0.019041179
102	0xbe0c64f7	-0.1371039
103	0x3d275fef	0.040862974
104	0x3d4efb57	0.050532665
105	0xbdd57afa	-0.104238465
106	0xbdb40357	-0.087896995
107	0xbc1b19d7	-0.00946661
108	0x3cf2285f	0.029560266
109	0xbd971b4f	-0.073782556
110	0xbdf9caec	-0.121969074
111	0xbdcff334	-0.10153809
112	0xbb026116	-0.0019894294
113	0xbd520d61	-0.05128229
114	0xbbd181de	-0.006393655
115	0xbda8b082	-0.08236791
116	0xbdb24e35	-0.08706323
117	0x3cd77f91	0.026305946
118	0xbd81d855	-0.0634009
119	0x3d72c19d	0.059266675
120	0x3ddf6ce6	0.109094426
121	0x3df2e2d7	0.118596725
122	0x3daf3d05	0.085565604
123	0x3d900f34	0.0703415
124	0xbd9a98d9	-0.075486846
125	0xbc162eb7	-0.009166411
126	0xbd1fd9a9	-0.039025936
127	0xbd74a903	-0.059731495
128	0x3d1eb97a	0.038751103
129	0xbd775702	-0.06038571
130	0x3d226b2e	0.039652996
131	0x3d90d171	0.07071198
132	0xbd8d794a	-0.069079
133	0x3e16b692	0.14718083
134	0x3dbb5344	0.09146741
135	0x3c304e06	0.01076079
136	0x3bc3c044	0.0059738476
137	0xbc3ae020	-0.011405975
138	0xbd67bdc1	-0.056577448
139	0x3d8d9fbc	0.069152325
140	0xbd9729be	-0.073810086
141	0x3c38c7bb	0.011278088
142	0xbc2d4545	-0.010575597
143	0xbd27844b	-0.04089765
144	0x3cfd14c2	0.030893687
145	0xbcee9519	-0.02912383
146	0xbe29a5bb	-0.16567127
147	0xbcb6a1cd	-0.02229395
148	0xbd8a76f0	-0.06760967
149	0x3cdf438b	0.027253887
150	0x3dd65d2e	0.10466991
151	0xbc468157	-0.012115798
152	0xbd9f0528	-0.07764655
153	0xbd7fc80b	-0.062446635
154	0xbd502772	-0.050818868
155	0x3dbd9d0b	0.09258469
156	0x3a833715	0.0010010923
157	0x3dbf7d12	0.09350027
158	0xbd4d2d4d	-0.05009203
159	0x3d2367c5	0.039893884
160	0x3d02d4f1	0.031941358
161	0xbd9ee8bd	-0.07759235
162	0x3da567e6	0.08076458
163	0xbd8ef61e	-0.06980537
164	0x3d7d43bc	0.061832175
165	0x3d87e0e9	0.06634695
166	0x3d189c08	0.037258178
167	0xbc96ad92	-0.018393312
168	0xbc6caeb9	-0.014445954
169	0x3d546be3	0.0518607
170	0x3d87c8b2	0.066300765
171	0xbd31b686	-0.04338696
172	0x3d3c6973	0.045999
173	0x3d1cb9bc	0.038263068
174	0x3c46d282	0.01213515
175	0xbc21c7a7	-0.009874261
176	0xbc90eca8	-0.017690971
177	0x3b7a5add	0.0038201131
178	0x3d04836b	0.032351892
179	0xbd7f89e4	-0.062387362
180	0x3d4bd171	0.049760286
181	0xbd56e7ac	-0.052467033
182	0x3e4049e0	0.18778181
183	0x3cf4431e	0.02981716
184	0x3d80f299	0.06296272
185	0x3c3ebca1	0.011641652
186	0xbd550dde	-0.052015178
187	0x3e0d137b	0.13776962
188	0xbdc03e62	-0.093868986
189	0x3c259032	0.01010518
190	0x3bc2590b	0.005931025
191	0x3d31ddc2	0.043424375
192	0xbdb78fd1	-0.08962978
193	0xbd113950	-0.035455048
194	0x3d83e700	0.06440544
195	0xbdd314ff	-0.10306739
196	0x3dbd67a4	0.092482835
197	0xbd5583a4	-0.052127495
198	0x3d62d6af	0.05538052
199	0xbbc4f95b	-0.006011171
200	0xbd129268	-0.035784155
201	0xbc8b5605	-0.01700879
202	0xbc956cb8	-0.018240318
203	0x3cd0a7d6	0.025470655
204	0xbcf82d12	-0.030294929
205	0x3d6a9dcf	0.057279404
206	0xbe3d7290	-0.18500733
207	0x3dacf7ef	0.08445727
208	0xbdc37908	-0.09544569
209	0xbd7d7aab	-0.061884563
210	0x3d89c078	0.067261636
211	0xbd84ebca	-0.06490286
212	0xbdb713b3	-0.08939304
213	0x3d0ff05f	0.035141345
214	0xbcce3fe8	-0.025176957
215	0x3bf8efa3	0.0075969263
216	0xbd95d3a8	-0.07315761
217	0x3cd76e54	0.026297726
218	0xbdb085c9	-0.086192675
219	0xbdaf2845	-0.08552603
220	0x3e045704	0.12923819
221	0x3dbf14d2	0.09330143
222	0xbd1dc5ef	-0.038518842
223	0xbd8a9c55	-0.06768099
224	0x3c3b5bbc	0.011435445
225	0xbd1fbd2a	-0.03899876
226	0xbdf57d3c	-0.11986777
227	0x3d07984d	0.03310423
228	0xbe02bf5b	-0.12768309
229	0xbdbb5cf1	-0.091485865
230	0x3daaba23	0.08336284
231	0xbde6446a	-0.11243518
232	0xbdc40c4d	-0.09572659
233	0x3d0d0e3f	0.034437414
234	0xbd4081aa	-0.046998657
235	0xbd1a6008	-0.03768924
236	0xbcd72684	-0.026263483
237	0xbc802464	-0.015642352
238	0xbc6e14f5	-0.014531364
239	0x3d7f18eb	0.062279623
240	0xbc46d960	-0.012136787
241	0xbd909af9	-0.07060809
242	0xbd3fca5b	-0.04682384
243	0xbc0b9106	-0.008518463
244	0xbd00cbc5	-0.03144433
245	0x3e080032	0.13281325
246	0xbe1d812e	-0.1538131
247	0xbcb768fe	-0.022388931
248	0xbc9ddb6e	-0.019269671
249	0xbd67ebbe	-0.056621306
250	0xbdba76d7	-0.09104698
251	0xbd97a4c3	-0.07404473
252	0xbdf1abcc	-0.11800346
253	0x3d20ec91	0.039288107
254	0x3dabcf15	0.08389107
255	0x3d93584f	0.07194578

bias f4 [128]
0	0x3c1fc164	0.009750698
1	0xbd0a87af	-0.033820804
2	0x3cf5b14c	0.029991768
3	0xbbe0eea3	-0.006864385
4	0xbdce618d	-0.100772
5	0xbe172781	-0.14761163
6	0xbd2b987b	-0.041893464
7	0x3cbd7dfb	0.023131361
8	0xbd83e0c0	-0.06439352
9	0xbcfcfcf6	-0.03088234
10	0xbbd89f54	-0.0066107903
11	0x3c07eb3d	0.008295831
12	0xbd7acdfb	-0.061231595
13	0xbc433cc2	-0.011916341
14	0xbd0aeb24	-0.033915654
15	0xbb531fa2	-0.00322149
16	0xbd283181	-0.041062836
17	0x3d21bab8	0.03948471
18	0x3d429d33	0.047513198
19	0xbd1fe7f9	-0.039039586
20	0x3d8f6eb4	0.07003537
21	0xbd85a932	-0.06526412
22	0xbddf0763	-0.10890081
23	0xbc987106	-0.018608581
24	0x3d2d414f	0.04229861
25	0xbe07c4a8	-0.13258612
26	0x3d49b063	0.04924048
27	0xbe031b3b	-0.12803356
28	0x3c05c23f	0.008163988
29	0xbdaa387c	-0.08311555
30	0xbdd85366	-0.10562782
31	0xbd05f0d3	-0.03270037
32	0x3c94bd77	0.01815675
33	0xbd520bfd	-0.051280964
34	0x3d1021f6	0.035188638
35	0xbd6dde01	-0.058073048
36	0xbd4228d2	-0.04740221
37	0x3d0fdc6e	0.035122328
38	0xbd2d619f	-0.042329427
39	0xbb66853c	-0.0035174629
40	0xbd263a2a	-0.040582813
41	0xbde43f14	-0.11144844
42	0xbd298017	-0.04138192
43	0xbd7495ec	-0.05971329
44	0xbd7247b6	-0.05915042
45	0x3bfc5778	0.007700857
46	0xbd286c4b	-0.0411189
47	0x38b4d878	8.623389e-05
48	0xbd508924	-0.050912037
49	0x3cbd36c1	0.023097398
50	0x39ef9181	0.0004569404
51	0xbd0e1df9	-0.034696553
52	0xbc482cf5	-0.01221775
53	0x3cd8f1af	0.026482431
54	0x3cd0411f	0.025421677
55	0xbda0e86a	-0.078568295
56	0xbc8545c8	-0.016268626
57	0x3c31d216	0.010853311
58	0xbcb8cdb4	-0.022559024
59	0xbbe71a64	-0.0070527066
60	0xbaf7bc4b	-0.001890072
61	0x3b25cc09	0.0025298616
62	0x3cc60880	0.024173975
63	0xbc31d931	-0.010855005
64	0xbd670e74	-0.056410268
65	0xbd617a2f	-0.055048164
66	0xbb6edcb3	-0.0036447465
67	0xbd80a300	-0.0628109
68	0x3cd89fc6	0.026443373
69	0xbc814b5b	-0.015783003
70	0xbe173d30	-0.14769435
71	0xbdfbb54d	-0.1229044
72	0x3ba843bb	0.005135027
73	0xbd352a71	-0.04422993
74	0x3d00775e	0.031363837
75	0x3d60e59a	0.054906465
76	0xbd89fe13	-0.06737914
77	0x3c519ddb	0.012793983
78	0xbc0b6aab	-0.008509318
79	0x3d40e19b	0.047090154
80	0x3c4c6232	0.012474583
81	0xbc09207b	-0.00836956
82	0xbab65cc3	-0.0013913143
83	0x3bfc448e	0.007698602
84	0xbd315f95	-0.043304045
85	0xbdb07717	-0.086164646
86	0xbcd24cca	-0.025671382
87	0xbba6a866	-0.0050859926
88	0x3d1497c4	0.036277547
89	0xbe0bd55c	-0.13655609
90	0x3bfca51f	0.0077101137
91	0x3cacc79b	0.021091273
92	0xbc4afdf2	-0.012389647
93	0xbcf3c773	-0.02975819
94	0xbcf989a2	-0.030461136
95	0xbd31a9f3	-0.043374967
96	0xbda48bc6	-0.08034472
97	0x3d18d13b	0.037308913
98	0xbda99a32	-0.082813635
99	0xbd931471	-0.07181633
100	0xbda9c33b	-0.082891904
101	0xbc2df118	-0.010616563
102	0xbc423e10	-0.011855617
103	0x3cf54500	0.029940128
104	0xba682bb0	-0.00088566076
105	0x3abb0f2b	0.0014271488
106	0x3d0d9513	0.034565996
107	0xb98410b8	-0.00025189458
108	0xbd3b20d4	-0.045685604
109	0xbbb9788e	-0.005660123
110	0x3d0bf305	0.03416731
111	0xbdb8428f	-0.0899707
112	0xbc03df2e	-0.008048816
113	0xbcdc37cb	-0.026882073
114	0x3c9fd1db	0.019509247
115	0xbd58e031	-0.05294818
116	0x3b53e790	0.0032334067
117	0xbc5e4352	-0.013565855
118	0xbdf6113f	-0.12015008
119	0xbd001708	-0.031271964
120	0x3d0c235b	0.034213405
121	0xbe02a56b	-0.12758414
122	0xbd3b820c	-0.04577832
123	0x3c76ff8c	0.015075576
124	0x3ce6264c	0.028094433
125	0xbd1d479e	-0.038398378
126	0xbc728949	-0.014803239
127	0xbc9b5d0c	-0.018965267

weight f4 [12, 128]
0	0xbd904ff9	-0.070465036
1	0xbd22107f	-0.039566513
2	0xbc876db8	-0.01653181
3	0xbc4af12b	-0.0123866005
4	0xbd35e3fe	-0.044406883
5	0x3d0234db	0.03178869
6	0x3d146002	0.036224373
7	0x3cd3f744	0.025874741
8	0xbd1ae496	-0.037815653
9	0xbd958e72	-0.0730256
10	0xbccebe51	-0.025237234
11	0x3cb61a43	0.02222932
12	0xbccb2fc9	-0.02480306
13	0x3e0dc241	0.13843633
14	0xbd839d0a	-0.06426437
15	0xbd56ca26	-0.052438878
16	0x3d108016	0.035278402
17	0xbd5f7082	-0.054550655
18	0x3cf0e5cb	0.029406449
19	0x3e081fa1	0.13293315
20	0xbda03e40	-0.07824373
21	0x3d40195c	0.046899185
22	0x3d748bb0	0.05970353
23	0xbd8a1702	-0.0674267
24	0xbd2c2277	-0.042025056
25	0xbd5d636d	-0.054049898
26	0xbc73e717	-0.014886639
27	0x3cc16f86	0.023612749
28	0x3d1889cc	0.03724079
29	0xbb2e35c9	-0.0026582351
30	0xbdb85b8a	-0.09001835
31	0xbbbbd984	-0.005732717
32	0x3d22f66f	0.0397858
33	0x3b412d01	0.0029476287
34	0x3d2273e4	0.039661303
35	0xbc9665b0	-0.018359035
36	0x3d6a637c	0.057223782
37	0xbd8867ea	-0.06660445
38	0xbd48eaa6	-0.049051903
39	0x3d61fea5	0.05517449
40	0x3d555d08	0.052090675
41	0x3d53b25b	0.051683765
42	0x3dd2d3cb	0.102943026
43	0x3cd69d94	0.026198186
44	0x3db0979f	0.086226694
45	0xbdef5e77	-0.116879396
46	0x3db3ed3e	0.08785485
47	0xbd07b5b4	-0.03313227
48	0x3d3e3fc4	0.04644753
49	0xbd4b4d09	-0.049634013
50	0x3dfe0d79	0.124049135
51	0xbd526855	-0.05136903
52	0x3cfac488	0.030611292
53	0x3dadec29	0.084923096
54	0x3dbcd6c4	0.09220651
55	0xbdb87534	-0.0900673
56	0xbd3664c5	-0.044529695
57	0xbddd51a2	-0.10806586
58	0x3b99ef35	0.004697705
59	0xbdb83106	-0.089937255
60	0x3d4afe81	0.04955912
61	0xbcb34446	-0.021883141
62	0x3a8b95d4	0.0010649511
63	0xbdad88a6	-0.08473329
64	0xbc47999c	-0.012182619
65	0x3cf80ac2	0.030278567
66	0xbcbb2878	-0.022846445
67	0xbd52d89e	-0.051476113
68	0xbca7a7b9	-0.020465719
69	0x3da7a13b	0.08185049
70	0x3d4b8195	0.049684126
71	0xbdedfef9	-0.11620898
72	0xbd74ccf3	-0.059765767
73	0x3c2ab4a4	0.010419045
74	0xbd1d172c	-0.038352177
75	0x3b52cb66	0.0032164692
76	0xbd20e032	-0.03927631
77	0xbc27aba6	-0.010233795
78	0x3d62cf2b	0.055373352
79	0xbd23155c	-0.03981529
80	0x3c3e9999	0.0116333
81	0xbd9742ac	-0.073857635
82	0x3d436aa1	0.04770911
83	0xbcd3ca2e	-0.025853243
84	0x3d482188	0.048860103
85	0x3da90f49	0.082548685
86	0x3d7016cd	0.058615495
87	0x3d574059	0.0525516
88	0x3d34b683	0.04411937
89	0x3d4f4a3c	0.050607905
90	0xbd0241d2	-0.031801052
91	0xbd3dc661	-0.046331767
92	0xbd7b752d	-0.061391044
93	0xbd114fd4	-0.03547652
94	0xbced6564	-0.02897901
95	0xbde666d0	-0.11250079
96	0x3cc19136	0.023628812
97	0xbc337842	-0.010953965
98	0xbd83ed5f	-0.06441759
99	0xbd265e59	-0.04061732
100	0xbc4187d2	-0.011812167
101	0xbd67fe04	-0.056638733
102	0x3d15b837	0.036552634
103	0x3d133665	0.035940547
104	0xbd5770d8	-0.05259785
105	0x3d057b0b	0.032588046
106	0x3b103642	0.0022004996
107	0x3da316f0	0.07963359
108	0xbcb36023	-0.021896427
109	0x3e09aa71	0.13443924
110	0xbe0a264f	-0.13491176
111	0x3d8dbf30	0.06921232
112	0x3d7f14f3	0.062275838
113	0xbd9b2854	-0.07576051
114	0x3c81668c	0.015795968
115	0x3d0c1463	0.03419913
116	0xbd2bfff5	-0.041992147
117	0x3ca47fae	0.020080414
118	0x3d953cda	0.07286997
119	0x3d83e411	0.064399846
120	0xbdbd29b7	-0.09236472
121	0xbd8c56f6	-0.06852524
122	0x3d5cf96a	0.053948797
123	0xbd25d047	-0.040481832
124	0x3b4ac746	0.003094153
125	0x3d2730ad	0.040817905
126	0x3d1dbd85	0.038510818
127	0xbb7c7d78	-0.0038526934
128	0xbdffd1a7	-0.1249116
129	0xbced0c50	-0.028936535
130	0xbd0e960d	-0.03481107
131	0xbd53b2ee	-0.051684313
132	0xbc45a4ac	-0.012063187
133	0xbc8ec3d6	-0.017427366
134	0xbd16ca94	-0.036814287
135	0xbcb15cb6	-0.021650653
136	0xbd08d25b	-0.033403736
137	0x3d80fdc0	0.06298399
138	0x3d338302	0.04382611
139	0xbd8db323	-0.06918933
140	0x3cf723d0	0.030168444
141	0x3cc5afb2	0.02413163
142	0xbdf6496c	-0.12025723
143	0xbac07372	-0.0014682843
144	0x3d59d212	0.053178854
145	0xbcecadba	-0.028891433
146	0x3bf43576	0.007452662
147	0x3bcf819e	0.0063325902
148	0xbcee2c22	-0.029073779
149	0x3c4d96f6	0.012548199
150	0x3d90a56b	0.07062801
151	0xbd718771	-0.058967058
152	0xb8377f72	-4.3749293e-05
153	0xbc4471d6	-0.011990031
154	0x3dd8f1b1	0.10592974
155	0xbbf5be6e	-0.0074995076
156	0x3c03bc0f	0.008040442
157	0x3c091259	0.008366191
158	0x3dde0943	0.1084161
159	0xbd1d80f0	-0.038453043
160	0x3d263db9	0.040586207
161	0x3d3d71bd	0.046251047
162	0xbd511219	-0.05104265
163	0xbd2f6648	-0.042822152
164	0xbc8e4d03	-0.017370706
165	0xbcd01a33	-0.025403118
166	0xbb6f24ea	-0.0036490508
167	0x3d5175c9	0.05113772
168	0xbcccfa22	-0.025021616
169	0x3d865f1a	0.06561108
170	0xbe13322d	-0.1437461
171	0x3cc68732	0.024234388
172	0xbbe315a7	-0.0069300714
173	0xbbce6ef3	-0.0062998473
174	0xbcdc9bab	-0.026929697
175	0xbdefc84a	-0.11708124
176	0x3d747539	0.059682105
177	0xbddf721f	-0.10910439
178	0x3c6e7828	0.014555015
179	0x3cf688d3	0.03009454
180	0xbce8bfbf	-0.028411744
181	0xbdcafbee	-0.09911333
182	0xbc98a187	-0.01863171
183	0x3db73f6b	0.08947643
184	0xbbeeb003	-0.007284166
185	0x3d1f9336	0.03895875
186	0x3c8cf7a3	0.017207926
187	0xbcab9010	-0.020942718
188	0x3c3d6631	0.011560009
189	0x3d576235	0.052583892
190	0xbcaf3981	-0.021389725
191	0xbd819761	-0.06327701
192	0xbd2fcaea	-0.042918123
193	0x3d34198e	0.043969683
194	0x3dcbb253	0.09946122
195	0x3d3910f3	0.04518218
196	0xbd0a63a0	-0.033786416
197	0x3cae76ae	0.021296825
198	0x3d6f026c	0.05835192
199	0x3da04645	0.07825903
200	0x3d4e500d	0.05036931
201	0x3c031d68	0.008002616
202	0xbd2855d7	-0.04109749
203	0x3d183859	0.037163112
204	0x3c6e7258	0.014553629
205	0x3ce3506a	0.027748305
206	0xbc0d2d72	-0.008616792
207	0xbd86a7bf	-0.06574964
208	0xbcf05ebf	-0.029342053
209	0xbd4be059	-0.0497745
210	0x3cd3b8a2	0.025844876
211	0x3c8a58a1	0.016887965
212	0x3d95f7b1	0.07322634
213	0x3d510a32	0.051035114
214	0x3d9d7063	0.07687452
215	0xbd3a06c2	-0.0454166
216	0xbd3e1d29	-0.046414528
217	0x3db7fd36	0.08983843
218	0x3d7dd07f	0.061966415
219	0x3c4c4333	0.012467193
220	0xbd4018cc	-0.04689865
221	0x3b26ce73	0.0025452643
222	0x3b040d12	0.0020149392
223	0x3dd7706d	0.105194904
224	0x3d5919d7	0.05300316
225	0xbd99da9c	-0.075123996
226	0x3bebbef2	0.0071943933
227	0x3b617ab2	0.0034405407
228	0xbc16334e	-0.009167505
229	0xbcb56510	-0.022142917
230	0xbe178fb5	-0.14800914
231	0xbd8c1c2a	-0.06841309
232	0x3cc2dc5e	0.02378672
233	0x3d5fd976	0.054650746
234	0xbd724d86	-0.059155963
235	0xbc8b188d	-0.01697948
236	0x3d8d2f43	0.0689378
237	0xbc51d02f	-0.0128059825
238	0x3b0a3275	0.0021087204
239	0x3d1dcabe	0.03852343
240	0xbd393968	-0.045220762
241	0xbce7ffb0	-0.028320163
242	0x3d5cc607	0.05389979
243	0xbcc8baec	-0.024503194
244	0xbb18f6d3	-0.0023340478
245	0x3d6152c1	0.05501056
246	0xbc81c663	-0.015841668
247	0xbcd2154c	-0.02564492
248	0xbbc7f154	-0.0061017666
249	0x3d577f00	0.05261135
250	0xbb756fdc	-0.0037450707
251	0xbdc528d9	-0.09626932
252	0xbcac15bf	-0.021006463
253	0x3dc48e39	0.09597439
254	0x3db753a9	0.08951504
255	0x3c8534e0	0.016260564

bias f4 [12]
0	0xbdc37b31	-0.09544981
1	0xbe0c7c68	-0.13719332
2	0x3db1bbfe	0.08678435
3	0x3dba8474	0.09107295
4	0xbdb8f4b8	-0.090310514
5	0x3cd6a4d2	0.02620164
6	0xbdb85357	-0.09000271
7	0xbca01f35	-0.01954613
8	0xbd95e590	-0.07319176
9	0x3e1691f8	0.1470412
10	0xbc96df9e	-0.018417176
11	0xbd8667c4	-0.065627605
